examples/simple_stgcn/checkpoints/best_model.pt (torch, 760162 bytes, 61 tensors)

model.layers.0._temporal_conv1.conv_1.weight f4 [16, 1, 1, 3]
1.4720635 0.17839096 -1.4048969 0.9576477 0.37071103 3.3580391 -0.87552553 1.4021689
2.3256443 1.5720983 1.8111267 1.1363912 0.49794337 0.5927204 -1.1310033 1.5943689
2.688378 4.311276 0.0847657 0.83454466 -0.42064232 -1.3589461 -1.9042592 0.97337294
0.006528513 0.06897517 0.5792183 4.0128946 2.162966 2.2362745 0.04211447 -0.64447373
4.111552 -1.2409807 -1.0234973 -1.0807956 2.2992833 1.5810794 1.8511919 -0.34717375
0.65519077 -1.4314361 -1.9335308 -1.1687255 0.50258315 -0.3877834 -0.03585142 0.9817868
00000000: 946c bc3f 1fac 363e a9d3 b3bf 6628 753f
00000010: d6cd bd3e 1dea 5640 7122 60bf 457a b33f
00000020: 5bd7 1440 843a c93f 00d3 e73f 4475 913f
00000030: 6ff2 fe3e 86bc 173f b7c4 90bf 4814 cc3f
00000040: 630e 2c40 f9f5 8940 a499 ad3d b8a4 553f
00000050: 6e5e d7be f2f1 adbf c4be f3bf f82e 793f
00000060: 23ed d53b db42 8d3d a747 143f a269 8040
00000070: 096e 0a40 1f1f 0f40 3980 2c3d 3bfc 24bf
00000080: d591 8340 75d8 9ebf f601 83bf 8357 8abf
00000090: 7527 1340 cf60 ca3f dbf3 ec3f c2c0 b1be
000000a0: 95ba 273f 4c39 b7bf f07d f7bf cc98 95bf
000000b0: 4aa9 003f 8c8b c6be f0d8 12bd 6156 7b3f

model.layers.0._temporal_conv1.conv_1.bias f4 [16]
-1.4725809 0.54029185 -2.971936 -4.1642156 -1.2607615 0.7824976 -1.1226449 1.1026127
-0.2676715 0.086980924 -0.6020184 -6.744014 -4.1954236 -0.29299116 0.13901992 0.7850629
00000000: 887d bcbf 9150 0a3f 3334 3ec0 4141 85c0
00000010: a260 a1bf c351 483f d4b2 8fbf 6a22 8d3f
00000020: 3d0c 89be 0e23 b23d e11d 1abf f6ce d7c0
00000030: e940 86c0 f002 96be 3d5b 0e3e e2f9 483f

model.layers.0._temporal_conv1.conv_2.weight f4 [16, 1, 1, 3]
-2.7626748 1.1707313 1.2093604 -0.19527806 -1.7537457 -1.5543337 -0.40944317 -3.6579933
-4.171806 -0.09934743 0.17100227 1.3944957 0.4332175 1.0679325 1.6595113 0.96070826
-1.4051069 -3.815505 -1.1870335 -1.1846447 -0.5836427 -1.0838004 -1.3732121 2.4568791
-0.3391713 0.056809764 -0.25529492 -2.7800193 -2.1001832 -2.1451643 -0.57295156 -2.0379238
2.015634 0.79043597 -0.26845342 -1.283381 0.77521795 0.19817337 1.0590596 0.3839725
-0.49688563 -1.8720472 1.1906062 0.52609116 0.46216533 -3.4374826 -1.6077573 1.0448962
00000000: aacf 30c0 86da 953f 52cc 9a3f f9f6 47be
00000010: bd7a e0bf 68f4 c6bf 89a2 d1be 901c 6ac0
00000020: 6f7f 85c0 aa76 cbbd 381b 2f3e d67e b23f
00000030: afce dd3e 03b2 883f de6a d43f faf0 753f
00000040: 8bda b3bf 3c31 74c0 b7f0 97bf 70a2 97bf
00000050: 9c69 15bf f9b9 8abf 6ac5 afbf 823d 1d40
00000060: dca7 adbe 5bb1 683d 04b6 82be d6eb 31c0
00000070: 6769 06c0 5f4a 09c0 f4ac 12bf 586d 02c0
00000080: 2600 0140 035a 4a3f ba72 89be d445 a4bf
00000090: af74 463f f6ed 4a3e 448f 873f 0b98 c43e
000000a0: cb67 febe 3e9f efbf c965 983f e9ad 063f
000000b0: efa0 ec3e b7ff 5bc0 feca cdbf 29bf 853f

model.layers.0._temporal_conv1.conv_2.bias f4 [16]
-1.1241826 0.63620746 3.1268077 2.55088 0.040303696 1.7274543 -0.9851061 -0.45064718
-0.17176837 -0.80805624 -1.4881879 4.918452 -3.4544222 -1.8368444 -1.73866 -0.90886104
00000000: 37e5 8fbf 7ede 223f 9e1d 4840 9e41 2340
00000010: 7d15 253d 391d dd3f ea2f 7cbf 3abb e6be
00000020: 0ce4 2fbe c6dc 4ebf f17c bebf f563 9d40
00000030: 4115 5dc0 b81d ebbf 698c debf 1eab 68bf

model.layers.0._temporal_conv1.conv_3.weight f4 [16, 1, 1, 3]
1.574724 1.0833694 -2.6934674 0.69843405 0.9060436 1.5768348 1.1357489 1.47408
2.8069975 0.0011782546 -0.50337225 -1.9790683 -0.1159656 0.16121735 -1.4324993 0.5077881
-0.47116485 -2.0280216 0.09015496 -0.68765366 0.27731615 -0.18301135 -1.7169249 3.272151
0.00093900407 -0.0052032014 -0.3858994 -0.38375586 -0.46015725 -2.070622 -0.055883933 -2.149703
2.062275 0.151031 0.8788627 3.4730113 0.27852857 0.6609845 0.51228267 -0.08297156
-0.2991262 -1.2515013 -1.4164482 -0.029323077 1.894959 -1.126803 0.23099104 2.0120037
00000000: 8e90 c93f d9ab 8a3f c561 2cc0 93cc 323f
00000010: 79f2 673f b9d5 c93f 3860 913f a7ae bc3f
00000020: d9a5 3340 aa6f 9a3a 01dd 00bf 1c52 fdbf
00000030: 5f7f edbd 2916 253e 235c b7bf 67fe 013f
00000040: 853c f1be 1bcb 01c0 2aa3 b83d 120a 30bf
00000050: 62fc 8d3e 5467 3bbe 32c4 dbbf ec6a 5140
00000060: 7f27 763a 9e7f aabb 9b94 c5be a67b c4be
00000070: bb99 ebbe 1285 04c0 8de6 64bd bc94 09c0
00000080: 50fc 0340 dfa7 1a3e 25fd 603f d145 5e40
00000090: 4c9b 8e3e 4836 293f f524 033f feec a9bd
000000a0: 1227 99be 3231 a0bf 2d4e b5bf f336 f0bc
000000b0: 048e f23f 153b 90bf ea88 6c3e abc4 0040

model.layers.0._temporal_conv1.conv_3.bias f4 [16]
0.28748125 1.3034604 -0.6271607 -2.0377512 -1.244152 0.7909261 -2.1309435 -0.23579307
-0.5620728 0.91519135 -2.4127054 -5.27088 -4.519132 -1.2613896 0.25344166 -0.07264611
00000000: be30 933e cad7 a63f 9b8d 20bf 846a 02c0
00000010: 5f40 9fbf 227a 4a3f 6161 08c0 bd73 71be
00000020: 01e4 0fbf fb49 6a3f c469 1ac0 0dab a8c0
00000030: bb9c 90c0 3775 a1bf 1bc3 813e 7cc7 94bd

model.layers.0._graph_conv.linear.weight f4 [16, 16]
-0.111624055 0.031247336 -0.26429978 -0.13696279 -0.078314506 -0.22484045 -0.14811938 -0.19253008
0.15676877 0.12994471 0.22204965 0.11777722 -0.32604498 0.004525509 0.010534928 -0.26516867
-0.009371268 -0.38384354 -0.19186793 0.02282285 0.14593092 -0.5156433 -0.33995438 -0.09307299
0.046473958 0.061348233 0.15635063 -0.147889 0.05447364 -0.30445912 -0.15820639 -0.07175276
0.04181217 -0.072633445 -0.088700965 -0.12493223 -0.4075293 -0.095822036 -0.17567585 -0.04769555
0.066315755 -0.2078937 0.07441387 -0.37485254 -0.09001515 -0.27659145 -0.23104022 -0.00586727
0.8263488 1.3114557 -1.5215329 1.2482157 -0.31312975 0.38847613 0.013566149 2.9901314
-0.20692524 -0.8229542 -3.7255318 1.7191712 -2.937725 -0.31858957 1.3051147 0.71691966
-2.1715727 -1.9645996 1.0452377 5.1607947 -7.596332 -3.0870576 0.33805633 0.65378445
0.06534157 -2.1676192 1.1622221 -3.6574633 -2.1545465 -3.289808 1.6766119 -0.38986656
-0.4807463 -0.14681073 -0.46762213 0.103314616 -0.24522892 -0.17580448 -0.2532004 -0.41243246
0.22881162 -0.6430677 -0.3809155 0.030052766 -0.037223805 -0.29490873 -0.5118971 -0.4235468
3.776724 -0.59284276 -1.969185 -0.7910841 -2.073973 -0.8819306 -1.9289136 1.9667606
0.01909219 0.079370014 -4.5015154 -3.9017093 1.482198 -1.5760005 0.08164749 0.2384844
-0.8611394 -3.1857884 -1.5803485 0.23734695 0.29416463 -3.4309537 -1.5907508 -4.3199577
-0.010010368 -4.449133 -2.7835076 -0.2251619 1.9781004 0.29266092 2.1099324 -2.5988946
-0.527403 0.42471877 1.4860498 1.9624399 -0.6462237 -0.48622975 0.4738586 2.1056883
0.13514404 -4.8581223 -0.5221408 2.4944696 2.1260207 -1.592438 0.150375 0.38743034
-3.5822341 1.3520375 -0.6916414 -2.8620443 -1.761367 0.57926166 -0.99894154 0.66609955
0.08262685 0.7234299 -4.465035 -10.1907625 -2.0832367 -1.5474429 1.0372263 1.073488
3.84787 0.5830162 -0.1418236 2.0599782 -6.3138194 0.9931189 -0.7097475 -0.029898766
-0.04546141 0.20950964 -0.83164835 -7.9291315 -5.295421 -4.8784094 -0.056998193 -0.2796046
-0.049957223 -0.39064354 -0.038931485 0.09556832 0.1226317 -0.2184322 -0.41031405 0.018833116
-0.25033233 -0.4117506 -0.3695929 0.049418088 -0.051727585 -0.1573662 -0.4001215 -0.46431243
-0.045651972 1.9141468 1.8238415 1.0582777 -0.6857136 0.4463769 0.035444688 1.0342073
0.14171891 -0.60308707 1.3823605 -0.56049025 -2.1818264 -0.8378145 0.8467001 1.2699314
-0.23160481 0.046354234 -0.01593545 0.031117335 -0.18609314 -0.17847213 0.17039588 -0.16948885
0.117970034 0.14340082 -0.17483321 -0.16284366 -0.019888377 -0.29445913 0.07677692 -0.104165494
-0.045984194 -0.953714 2.35388 -0.39867362 -0.47333124 -1.6284817 1.4326509 2.5080962
0.120524265 0.06673774 0.2790595 -2.0612216 5.239969 -0.6663219 1.192702 0.46487078
1.7124978 -1.0230325 2.882449 2.6535835 0.8632354 -2.3870883 -0.056832623 0.288606
0.19525686 -1.6032834 -0.5036672 1.1655409 -0.093379304 0.78615606 0.06889573 0.61651295
00000000: 279b e4bd 6afa ff3c 4d52 87be f93f 0cbe
00000010: 5b63 a0bd 933c 66be 9bac 17be 9b26 45be
00000020: fe87 203e 3a10 053e fc60 633e 2f35 f13d
00000030: 5eef a6be b94a 943b b19a 2c3c 30c4 87be
00000040: f289 19bc 2487 c4be 0779 44be fcf6 ba3c
00000050: ea6e 153e 3301 04bf 800e aebe 0d9d bebd
00000060: 7a5b 3e3d 4948 7b3d 611a 203e 3770 17be
00000070: c01f 5f3d 11e2 9bbe db00 22be 1cf3 92bd
00000080: 3d43 2b3d d8c0 94bd daa8 b5bd 78dc ffbd
00000090: aea7 d0be 583e c4bd 5fe4 33be 695c 43bd
000000a0: 8ed0 873d 16e2 54be 4d66 983d acec bfbe
000000b0: dd59 b8bd 659d 8dbe cf95 6cbe 3a42 c0bb
000000c0: 988b 533f c8dd a73f 97c1 c2bf 88c5 9f3f
000000d0: 8b52 a0be 58e6 c63e 8e44 5e3c 505e 3f40
000000e0: 36e4 53be 20ad 52bf 1d6f 6ec0 cd0d dc3f
000000f0: b003 3cc0 2c1e a3be 000e a73f 0c88 373f
00000100: 0cfb 0ac0 0078 fbbf 59ca 853f 3b25 a540
00000110: 2715 f3c0 5a92 45c0 b815 ad3e 6b5e 273f
00000120: cdd1 853d 46ba 0ac0 b2c3 943f e113 6ac0
00000130: 17e4 09c0 378c 52c0 389b d63f 979c c7be
00000140: 6124 f6be 8d55 16be 2b6c efbe 9d96 d33d
00000150: 4a1d 7bbe 1706 34be 7ca3 81be 592a d3be
00000160: 984d 6a3e 16a0 24bf 5b07 c3be 3831 f63c
00000170: fd77 18bd 47fe 96be b00b 03bf 20db d8be
00000180: d9b5 7140 8bc4 17bf 410e fcbf 7d84 4abf
00000190: f9bb 04c0 34c6 61bf a4e6 f6bf d0be fb3f
000001a0: 3967 9c3c bf8c a23d 6a0c 90c0 9bb5 79c0
000001b0: aab8 bd3f 62ba c9bf cd36 a73d 4135 743e
000001c0: a273 5cbf f5e3 4bc0 dc48 cabf 140b 733e
000001d0: bf9c 963e bf94 5bc0 b99d cbbf 183d 8ac0
000001e0: 8702 24bc 4c5f 8ec0 fd24 32c0 d790 66be
000001f0: 6532 fd3f a7d7 953e 2209 0740 4a54 26c0
00000200: e203 07bf bd74 d93e e136 be3f 3b31 fb3f
00000210: eb6e 25bf 1bf3 f8be 989d f23e 99c3 0640
00000220: 3363 0a3e bd75 9bc0 05ab 05bf 64a5 1f40
00000230: b910 0840 02d5 cbbf e7fb 193e 455d c63e
00000240: 5343 65c0 910f ad3f 690f 31bf bc2b 37c0
00000250: 7974 e1bf 7e4a 143f a2ba 7fbf 8085 2a3f
00000260: 4438 a93d b432 393f 91e1 8ec0 5d0d 23c1
00000270: c053 05c0 9c12 c6bf d5c3 843f 0e68 893f
00000280: 8143 7640 8d40 153f 353a 11be afd6 0340
00000290: cf0a cac0 0a3d 7e3f 03b2 35bf 42ee f4bc
000002a0: be35 3abd b289 563e e8e6 54bf 72bb fdc0
000002b0: 1774 a9c0 ee1b 9cc0 f076 69bd 5628 8fbe
000002c0: f29f 4cbd 6e02 c8be 9f76 1fbd 53b9 c33d
000002d0: 5426 fb3d b1ac 5fbe af14 d2be e847 9a3c
000002e0: 8f2b 80be fad0 d2be 483b bdbe 9f6a 4a3d
000002f0: 4ee0 53bd 9b24 21be badc ccbe 5cba edbe
00000300: 90fd 3abd c302 f53f a373 e93f a575 873f
00000310: ed8a 2fbf 838b e43e 732e 113d e860 843f
00000320: c31e 113e ea63 1abf 30f1 b03f 4a7c 0fbf
00000330: 0ba3 0bc0 037b 56bf 56c1 583f 1d8d a23f
00000340: d029 6dbe f0dd 3d3d 108b 82bc c8e9 fe3c
00000350: 338f 3ebe 66c1 36be 427c 2e3e 7c8e 2dbe
00000360: 469a f13d aad7 123e 7a07 33be 7dc0 26be
00000370: f3ec a2bc 59c3 96be 383d 9d3d b854 d5bd
00000380: ec59 3cbd 9a26 74bf f8a5 1640 f31e ccbe
00000390: 7958 f2be 1772 d0bf 1b61 b73f a684 2040
000003a0: 6dd5 f63d ccad 883d e3e0 8e3e 0eeb 03c0
000003b0: d3ad a740 1294 2abf 76aa 983f 8b03 ee3e
000003c0: 2133 db3f bbf2 82bf 0b7a 3840 50d4 2940
000003d0: fffc 5c3f 0ec6 18c0 53c9 68bd 2ac4 933e
000003e0: 6af1 473e 6438 cdbf 55f0 00bf 7230 953f
000003f0: a63d bfbd 8641 493f 3419 8d3d cbd3 1d3f

model.layers.0._graph_conv.linear.bias f4 [16]
-0.20764248 -0.30615652 -0.2496818 -0.46759447 2.5642877 -0.43534938 0.25410977 2.2383811
-3.0753388 1.3498604 0.5433352 -0.30517206 -0.7056009 -0.27244857 1.8434922 -0.5051967
00000000: 3ba0 54be 8cc0 9cbe 96ac 7fbe 8b68 efbe
00000010: 4a1d 2440 1de6 debe ad1a 823e a341 0f40
00000020: 5ad2 44c0 3ac8 ac3f 0418 0b3f 833f 9cbe
00000030: 43a2 34bf 617e 8bbe 8df7 eb3f 9254 01bf

model.layers.0._temporal_conv2.conv_1.weight f4 [64, 16, 1, 3]
0.03911131 0.023906445 -0.03435709 -0.20100684 0.003262067 0.03443995 0.33200592 0.15191846
0.0655469 -0.7362416 -0.5466576 -0.17926086 -2.0696278 -1.2711222 -2.2333632 -0.2250631
-0.2198491 -0.4381622 1.3961776 -0.6998506 -1.4364121 -2.7424912 -3.4172628 0.55483454
0.31669345 -0.20601703 0.9465956 -0.058110025 -0.33925596 0.34434497 0.91477007 -0.6698953
-2.3665535 0.10715668 0.17845716 0.34062037 0.5043722 -0.1352391 0.38024753 -0.062294003
-0.11801156 -0.076716356 0.115966566 -0.33988044 0.628217 -0.4244561 0.055149507 0.9982118
-0.023202905 0.05772401 -0.110762276 0.72163796 0.69071966 0.11288099 0.45198166 0.11631941
-1.0491724 0.28307006 0.8419998 0.47225603 2.5176296 0.9402519 2.2850933 0.1375045
-0.3793686 -0.36318824 2.3487828 0.6526271 1.4303248 -0.16671169 -1.1127461 -0.043862693
0.50030595 0.42064235 0.23251739 -4.6338415 -0.45559448 -11.886253 1.3183558 1.5537908
-1.1694112 0.77470905 0.71990335 0.7882348 0.86034125 0.6313349 -0.30260593 0.11604345
-0.13268101 -0.07088577 1.7510265 0.6152874 -3.6171842 -0.9006093 -0.81069726 3.1012218
0.04310427 0.08034544 0.005312163 -0.0640003 0.05795866 0.054817192 -0.08047027 0.10389794
-0.0012156123 -0.12546486 -0.0951285 -0.093980245 -0.16105382 -0.10409584 -0.011479809 0.105960734
0.010963921 -0.13977672 0.14089206 0.019461842 0.18009026 -0.19951263 -0.093802124 0.040771328
0.002401332 -0.13204357 -0.18501781 -0.06067568 0.002312336 -0.17536344 -0.18079905 -0.06182485
-0.0896045 0.09979179 -0.14056602 -0.025657944 -0.16984771 -0.07900758 -0.13224415 0.06999499
-0.12693813 -0.12835793 -0.03882337 -0.11184131 0.1057753 -0.08070074 -0.14023803 0.031199668
-0.0876224 0.02084989 -0.09913382 -0.060747504 0.0917482 0.14998603 -0.18465312 0.09332195
0.20612083 -0.27689677 -0.33808473 -0.37019545 -0.15829407 -0.02520632 -0.14668657 -0.11925856
-0.046339996 -0.09880718 0.011804475 0.071580015 0.08592416 -0.14293426 0.023720525 0.04423672
-0.058241844 0.0010289523 0.021757292 -0.17933726 -0.22451198 -0.23577243 -0.11648564 -0.14194833
-0.13281554 0.118834436 -0.03495949 0.005162481 -0.509377 -0.37366062 -0.442516 -0.09313212
0.11178411 -0.11685736 -0.38222924 -0.39123446 -0.5197677 0.018436577 -0.11004414 -0.010505273
0.020502817 0.067220606 -0.024352776 0.040389735 0.07037966 -0.033399127 -0.02841611 0.002230034
0.14110439 -0.9001462 -1.0363913 0.025233269 2.3459735 2.8520193 2.6404214 -0.23555523
-0.16230364 0.12032535 -0.92556816 0.29687548 0.79370904 1.9453765 0.29965785 -1.7297951
2.0681381 1.6681854 2.6828318 -1.3500727 -0.26068854 2.439593 0.27871457 1.0987636
3.3337595 0.31579804 0.12949319 0.2874729 -1.3185343 -0.7919751 0.35469356 -0.043060243
0.02326904 0.15348881 -0.29868865 -0.5231622 0.034185976 0.12325213 -0.13387832 -1.1476524
-0.016061364 -0.12804505 -0.12987097 -0.0961532 0.21168439 0.24994515 -0.018119846 -0.053025745
0.07660643 -0.72616416 0.22268853 3.239654 3.4676185 -0.7971699 -1.602471 -0.1695558
00000000: 2e33 203d 73d7 c33c 05ba 0cbd bdd4 4dbe
00000010: 67c8 553b e810 0d3d aefc a93e 8390 1b3e
00000020: 743d 863d 547a 3cbf c1f1 0bbf 2990 37be
00000030: c874 04c0 22b4 a2bf 6cef 0ec0 f176 66be
00000040: 1f20 61be cc56 e0be f3b5 b23f 6929 33bf
00000050: 5adc b7bf fa84 2fc0 6fb4 5ac0 a309 0e3f
00000060: a525 a23e 21f6 52be 1754 723f c704 6ebd
00000070: f5b2 adbe fc4d b03e 5f2e 6a3f 427e 2bbf
00000080: 9d75 17c0 f674 db3d 79bd 363e cb65 ae3e
00000090: 891e 013f 1e7c 0abe ceaf c23e ff27 7fbd
000000a0: 0bb0 f1bd 771d 9dbd e17f ed3d cf04 aebe
000000b0: d4d2 203f 4f52 d9be 73e4 613d cf8a 7f3f
000000c0: 0514 bebc 0370 6c3d 55d7 e2bd 44bd 383f
000000d0: 01d3 303f 262e e73d 246a e73e df38 ee3d
000000e0: 484b 86bf 8fee 903e 4d8d 573f 8bcb f13e
000000f0: d820 2140 59b4 703f f83e 1240 fbcd 0c3e
00000100: 9a3c c2be cff3 b9be 7552 1640 9212 273f
00000110: e214 b73f 78b6 2abe 776e 8ebf 5ea9 33bd
00000120: 0d14 003f 6f5e d73e 0a19 6e3e 6e48 94c0
00000130: ae43 e9be 182e 3ec1 e2bf a83f 9ee2 c63f
00000140: 44af 95bf 5553 463f 964b 383f c1c9 493f
00000150: 533f 5c3f 2a9f 213f 2aef 9abe 30a8 ed3d
00000160: 88dd 07be 8f2c 91bd a321 e03f 7a83 1d3f
00000170: f27f 67c0 558e 66bf db89 4fbf 6b7a 4640
00000180: 1a8e 303d 268c a43d a711 ae3b 9712 83bd
00000190: 0f66 6d3d fe87 603d 99cd a4bd 71c8 d43d
000001a0: 2e55 9fba dc79 00be bbd2 c2bd b778 c0bd
000001b0: 4beb 24be 3330 d5bd cf15 3cbc f101 d93d
000001c0: 05a2 333c a121 0fbe 0246 103e 716e 9f3c
000001d0: 9569 383e 0a4d 4cbe 541b c0bd d6ff 263d
000001e0: aa5f 1d3b 6e36 07be 4f75 3dbe 1087 78bd
000001f0: 8f8a 173b 7992 33be 6323 39be 0e3c 7dbd
00000200: 9082 b7bd a35f cc3d 8af0 0fbe 9c30 d2bc
00000210: 8fec 2dbe bace a1bd 036b 07be 8959 8f3d
00000220: 12fc 01be 4370 03be 4105 1fbd 0f0d e5bd
00000230: b8a0 d83d 6e46 a5bd 8f9a 0fbe 7296 ff3c
00000240: 5f73 b3bd 63cd aa3c ac06 cbbd 60d2 78bd
00000250: 7be6 bb3d f095 193e b515 3dbe 941f bf3d
00000260: 5711 533e 6ac5 8dbe 7119 adbe 428a bdbe
00000270: d717 22be 7c7d cebc 0135 16be d53d f4bd
00000280: 02cf 3dbd 6b5b cabd 8f67 413c 8b98 923d
00000290: 02f9 af3d 5c5d 12be 8c51 c23c 9031 353d
000002a0: 008f 6ebd e9dd 863a 593c b23c 30a4 37be
000002b0: 78e6 65be 546e 71be 0690 eebd e75a 11be
000002c0: cc00 08be 785f f33d af31 0fbd 082a a93b
000002d0: 8866 02bf 7250 bfbe 7591 e2be 0ebc bebd
000002e0: 11ef e43d e952 efbd 8db3 c3be e24f c8be
000002f0: 7f0f 05bf 4e08 973c d25e e1bd 4f1e 2cbc
00000300: 86f5 a73c f5aa 893d 797f c7bc b56f 253d
00000310: 3623 903d 86cd 08bd e7c8 e8bc c325 123b
00000320: ab7d 103e fb6f 66bf 78a8 84bf 00b6 ce3c
00000330: 6e24 1640 7c87 3640 aafc 2840 6435 71be
00000340: ed32 26be 236d f63d 09f2 6cbf 1000 983e
00000350: 8430 4b3f 1902 f93f c16c 993e ed69 ddbf
00000360: 605c 0440 1987 d53f 84b3 2b40 2fcf acbf
00000370: f878 85be 4b22 1c40 adb3 8e3e 49a4 8c3f
00000380: 515c 5540 48b0 a13e dd99 043e a62f 933e
00000390: bbc5 a8bf e1be 4abf 659a b53e f05f 30bd
000003a0: b79e be3c 2c2c 1d3e b8ed 98be f5ed 05bf
000003b0: 9806 0c3d 9d6b fc3d 6617 09be 46e6 92bf
000003c0: 1f93 83bc 3e1e 03be e5fc 04be f8eb c4bd
000003d0: cbc3 583e 9ff1 7f3e 1270 94bc 8631 59bd
000003e0: d5e3 9c3d e5e5 39bf 7608 643e 7e56 4f40
000003f0: 76ed 5d40 5413 4cbf c51d cdbf 09a0 2dbe

model.layers.0._temporal_conv2.conv_1.bias f4 [64]
-4.1152716 -1.2415165 -0.05155708 -0.37983197 -3.0844572 10.333445 -0.07025087 -1.5497595
-2.72353 -0.119290575 0.045086697 -0.2253218 0.52032906 6.4906173 -0.3568577 -0.22026119
-0.12074859 -1.7439498 -1.4061354 -0.2260282 -4.965945 -0.76090366 -0.5730862 -3.7995834
-0.06768425 -0.39029783 -0.38993683 -1.4861621 0.0014307396 -0.15689948 1.9370378 0.52631813
-0.24045113 -0.38454974 0.6071386 -0.10815359 -0.07457532 -5.9767823 -0.15928616 -0.2017384
8.458598 -0.24631865 1.2395773 -0.14941691 2.4844437 -0.29621875 -0.115321435 -0.2558333
9.572614 -0.30935287 0.9746669 -2.6127079 -5.6215205 -3.8975828 4.766453 13.509146
-0.8137614 -0.045486208 -0.4152056 -0.8153352 2.5005088 -0.24412183 -2.0753868 -1.7794724
00000000: 4eb0 83c0 03ea 9ebf 842d 53bd 5679 c2be
00000010: bf67 45c0 ca55 2541 b0df 8fbd 855e c6bf
00000020: 514e 2ec0 9e4e f4bd d4ac 383d c2ba 66be
00000030: 4934 053f 23b3 cf40 0db6 b6be 268c 61be
00000040: 094b f7bd bf39 dfbf 3ffc b3bf f073 67be
00000050: 05e9 9ec0 95ca 42bf c7b5 12bf 602c 73c0
00000060: 0a9e 8abd 1ed5 c7be cda5 c7be 8f3a bebf
00000070: a887 bb3a 42aa 20be dbf0 f73f c9bc 063f
00000080: d238 76be b4e3 c4be 6f6d 1b3f a17f ddbd
00000090: f2ba 98bd cd41 bfc0 e91b 23be 8394 4ebe
000000a0: 6b56 0741 f53a 7cbe 78aa 9e3f bf00 19be
000000b0: 2001 1f40 fca9 97be a52d ecbd 95fc 82be
000000c0: 6d29 1941 8063 9ebe c583 793f 9b36 27c0
000000d0: 7fe3 b3c0 ff71 79c0 c886 9840 7625 5841
000000e0: ab52 50bf bf4f 3abd d495 d4be cfb9 50bf
000000f0: 5608 2040 13fb 79be 23d3 04c0 c0c5 e3bf

model.layers.0._temporal_conv2.conv_2.weight f4 [64, 16, 1, 3]
-0.2054665 -0.055141803 -0.027241154 -0.069185875 0.03652867 -0.09157882 0.40513176 0.27645767
0.1949454 -1.3555744 -1.0540383 -0.6911358 -2.2949412 -2.051615 -1.0125116 -0.18830203
-0.20041321 -0.21512485 -0.86290777 0.14164364 1.9095486 -0.8826005 0.37565476 1.038261
3.618032 3.5378518 2.4459014 0.9073727 0.47493848 0.53816915 -2.8995814 -1.9143082
0.76333326 -0.23352776 -0.01279927 -0.3117902 -1.1589986 -1.0078151 -0.70790374 0.050038625
-0.021768406 0.015119199 1.8286498 1.6292381 2.0469804 -0.14936759 -0.49843755 -0.98048013
0.044108517 -0.016838988 0.004844852 -0.071931675 0.015168387 0.1323831 0.0075636283 0.011450716
-0.10612826 -0.2575477 -1.0765783 -0.10433956 5.5974817 2.8619606 -0.13990107 -0.08063891
0.14378576 -0.091077395 1.5435562 2.2732468 -0.955307 0.85100394 0.82619584 -0.04642712
1.4332355 -0.1028854 0.7985899 -0.21309923 -3.4162288 -1.7277478 -0.705147 -0.85977036
-1.3245779 -0.021032747 0.11651019 0.21841395 -0.3315507 -0.29209545 0.889641 -0.051639784
-0.0456122 -0.063097686 4.8228345 1.2256657 3.0233073 7.3152895 5.462766 4.9215107
-0.10514981 -0.18177776 0.03694005 -0.142267 0.03850912 0.05056463 -0.04634534 -0.058402646
0.051005423 0.115936525 0.15814678 0.084691346 -0.04896793 0.066271804 -0.026677473 -0.117079705
-0.03785572 -0.0084658135 0.018060548 -0.17519216 -0.124745354 -0.14227702 -0.041582946 0.037245054
-0.1802867 -0.00023056337 -0.052511714 0.15664044 -0.051042534 -0.012378816 -0.013242042 -0.19752917
0.03154875 -0.05843211 0.028242586 -0.09019192 0.15391919 0.08675978 0.06392232 -0.06669655
-0.105256915 0.010465087 -0.10169162 -0.0063665155 0.12496093 -0.019453214 -0.099765465 -0.11326491
0.12241778 -0.05293552 -0.052701097 0.04823727 0.14452751 -0.021070292 -0.09692809 -0.13699579
0.030858302 0.04067029 0.08540205 0.14734586 -0.0009030349 0.19745703 -0.018554276 -0.049504403
0.009810544 -0.06790903 -0.08731291 -0.055064328 -0.07537731 0.21821457 0.09918235 0.016535336
0.11422018 0.067558795 -0.01049233 0.19867265 0.002050401 -0.013430991 0.16008465 0.12937133
0.12563086 0.048022162 -0.06063232 -0.13905418 0.14727281 0.20531213 0.17519434 -0.024849176
-0.058797948 -0.0037658396 0.25616592 0.10587217 0.16768841 0.050240085 0.14390452 0.027019752
-0.05376113 0.05022591 -0.17974788 0.06635101 0.049298324 0.050449464 -0.118842736 0.03212962
0.040893245 -1.7800941 -1.3789463 -0.7964899 1.5269369 3.6245801 1.3096875 -0.07913863
-0.25501618 -0.04096828 1.8302358 3.2162468 -0.06654106 1.4615542 -0.5895217 -1.0933893
1.7854782 1.9821849 2.8945127 0.9558143 1.2290766 1.9898797 3.5251443 2.3938823
2.5054684 0.5352096 0.2709861 0.47979534 0.80365634 0.77402705 1.2532436 0.12013403
0.022273114 -0.067529604 -2.2852533 -1.9268429 -0.55274075 1.8342403 2.2097876 2.2191927
0.15202524 -0.026193943 -0.07357749 0.19471106 0.09093681 0.17463897 -0.07831807 0.15499666
0.009398554 -2.549043 -2.1187975 0.8173946 -1.3240868 -2.1911762 -0.9612996 0.098403476
00000000: cf65 52be 5fdc 61bd d728 dfbc 53b1 8dbd
00000010: 169f 153d ad8d bbbd 6e6d cf3e dc8b 8d3e
00000020: c49f 473e 7683 adbf baea 86bf 47ee 30bf
00000030: 51e0 12c0 a94d 03c0 fb99 81bf 3fd2 40be
00000040: 1f39 4dbe b049 5cbe 86e7 5cbf 080b 113e
00000050: 176c f43f 1bf2 61bf d255 c03e bde5 843f
00000060: d68d 6740 2a6c 6240 a689 1c40 9449 683f
00000070: 232b f33e 74c5 093f be92 39c0 0d08 f5bf
00000080: cf69 433f e721 6fbe 08b4 51bc f7a2 9fbe
00000090: 115a 94bf 1600 81bf 2e39 35bf 4df5 4c3d
000000a0: a853 b2bc 84b6 773c 3211 ea3f e08a d03f
000000b0: ba01 0340 d1f3 18be 3533 ffbe bf00 7bbf
000000c0: 22ab 343d ebf1 89bc 90c1 9e3b ea50 93bd
000000d0: d484 783c 6f8f 073e 50d8 f73b c99b 3b3c
000000e0: c659 d9bd 4bdd 83be 51cd 89bf fbaf d5bd
000000f0: 921e b340 5d2a 3740 3a42 0fbe 0326 a5bd
00000100: 933c 133e c986 babd 4093 c53f e07c 1140
00000110: 008f 74bf 65db 593f 9281 533f 5d2a 3ebd
00000120: 4374 b73f 95b5 d2bd 6370 4c3f af36 5abe
00000130: 7ea3 5ac0 d726 ddbf 8484 34bf e919 5cbf
00000140: c58b a9bf de4c acbc e59c ee3d e8a7 5f3e
00000150: 03c1 a9be 898d 95be 83bf 633f 3d84 53bd
00000160: dcd3 3abd 5c39 81bd a954 9a40 9de2 9c3f
00000170: de7d 4140 da16 ea40 fbce ae40 047d 9d40
00000180: c958 d7bd f323 3abe 734e 173d 71ae 11be
00000190: bdbb 1d3d dc1c 4f3d 9cd4 3dbd 9d37 6fbd
000001a0: 10eb 503d 2170 ed3d 3bf1 213e a872 ad3d
000001b0: 9992 48bd 83b9 873d b78a dabc 7cc7 efbd
000001c0: 990e 1bbd 32b4 0abc b7f3 933c 9365 33be
000001d0: 7e7a ffbd 11b1 11be e152 2abd 458e 183d
000001e0: 149d 38be 62c3 71b9 8616 57bd 5a66 203e
000001f0: fa11 51bd 84d0 4abc 26f5 58bc 1645 4abe
00000200: 4339 013d 8256 6fbd ff5c e73c 8bb6 b8bd
00000210: fe9c 1d3e 1daf b13d b5e9 823d 3398 88bd
00000220: f090 d7bd c275 2b3c b243 d0bd 349e d0bb
00000230: 84eb ff3d 595c 9fbc d651 ccbd 6ff7 e7bd
00000240: 2cb6 fa3d ead2 58bd 1bdd 57bd 7294 453d
00000250: 05ff 133e 9b9b acbc 3c82 c6bd a048 0cbe
00000260: 8dca fc3c e495 263d 45e7 ae3d d5e1 163e
00000270: a5b9 6cba 2d32 4a3e 23ff 97bc 21c5 4abd
00000280: 67bc 203c e413 8bbd 1cd1 b2bd 228b 61bd
00000290: 6b5f 9abd a473 5f3e 1e20 cb3d 1d75 873c
000002a0: 45ec e93d 445c 8a3d 06e8 2bbc d870 4b3e
000002b0: 0560 063b a90d 5cbc 3bed 233e eb79 043e
000002c0: 60a5 003e e3b2 443d 9859 78bd 3864 0ebe
000002d0: afce 163e 583d 523e 2566 333e 8090 cbbc
000002e0: 1ed6 70bd 4ecc 76bb 2e28 833e 82d3 d83d
000002f0: 83b6 2b3e 8cc8 4d3d b55b 133e 8758 dd3c
00000300: a134 5cbd afb9 4d3d d40f 38be 0ae3 873d
00000310: 0aed 493d 19a4 4e3d d263 f3bd 599a 033d
00000320: ad7f 273d 20da e3bf 5081 b0bf c3e6 4bbf
00000330: ab72 c33f 1ff9 6740 d7a3 a73f 6f13 a2bd
00000340: 7b91 82be 5bce 27bd 2b45 ea3f fdd6 4d40
00000350: ae46 88bd 3514 bb3f e5ea 16bf 2ef4 8bbf
00000360: 8d8a e43f 3cb8 fd3f b23f 3940 3fb0 743f
00000370: 6252 9d3f 61b4 fe3f f79b 6140 5e35 1940
00000380: 9859 2040 7f03 093f b1be 8a3e bca7 f53e
00000390: 6cbc 4d3f a326 463f 496a a03f d508 f63d
000003a0: 1b76 b63c f64c 8abd 9741 12c0 caa2 f6bf
000003b0: 6b80 0dbf 63c8 ea3f 296d 0d40 4107 0e40
000003c0: 81ac 1b3e ae94 d6bc ccaf 96bd 5662 473e
000003d0: 143d ba3d 8fd4 323e 3965 a0bd 72b7 1e3e
000003e0: 65fc 193c 8523 23c0 619a 07c0 c640 513f
000003f0: ad7b a9bf 3b3c 0cc0 bb17 76bf c387 c93d

model.layers.0._temporal_conv2.conv_2.bias f4 [64]
-6.8319197 0.17217895 0.07205369 0.18699062 -2.4011614 2.8513908 0.024110394 1.0516696
-1.5759404 0.04322439 -0.1660231 -0.04771876 -0.1671334 4.0402193 0.3908159 -0.11711178
-0.014829884 -1.7554762 -0.31008092 -0.29270047 5.329576 -0.63605076 2.9036403 -9.868
-0.43695956 -0.009335724 -0.15216833 1.3316644 -0.034363527 0.04947145 3.2943203 0.7917026
-0.18630974 -2.9995964 -2.3034759 0.10715248 0.08784853 -9.263721 -0.006670403 0.070130214
2.7380893 -0.04937425 0.30270782 -0.07878621 -0.8262302 2.5131478 0.1655281 0.4022966
6.779914 -0.57515067 2.2204804 -2.7470424 -0.054194186 -4.1233974 1.8910092 4.055925
-0.6275705 -0.13882367 1.0193483 -1.236715 0.66585255 -0.19027886 -1.1641636 -1.6285892
00000000: 169f dac0 ae4f 303e e390 933d 787a 3f3e
00000010: a1ac 19c0 307d 3640 2983 c53c 1c9d 863f
00000020: 6ab8 c9bf 0f0c 313d f601 2abe bf74 43bd
00000030: 0525 2bbe 7a49 8140 0619 c83e 4dd8 efbd
00000040: 0bf9 72bc 72b3 e0bf edc2 9ebe d6dc 95be
00000050: e38b aa40 39d4 22bf 3ed5 3940 54e3 1dc1
00000060: 2ab9 dfbe ddf4 18bc 04d2 1bbe fb73 aa3f
00000070: c5c0 0cbd 93a2 4a3d 25d6 5240 06ad 4a3f
00000080: fbc7 3ebe 63f9 3fc0 266c 13c0 c272 db3d
00000090: eee9 b33d 3438 14c1 6593 dabb 6ea0 8f3d
000000a0: db3c 2f40 a73c 4abd 85fc 9a3e aa5a a1bd
000000b0: d383 53bf 6ad7 2040 3380 293e d2f9 cd3e
000000c0: 0ef5 d840 133d 13bf 5a1c 0e40 8bcf 2fc0
000000d0: b9fa 5dbd dff2 83c0 970c f23f 23ca 8140
000000e0: 76a8 20bf cb27 0ebe 017a 823f ad4c 9ebf
000000f0: 5075 2a3f 76d8 42be 5003 95bf 9c75 d0bf

model.layers.0._temporal_conv2.conv_3.weight f4 [64, 16, 1, 3]
-0.0085884705 -0.20403425 -0.19138987 0.0716498 0.0063047707 -0.20578355 0.2540983 0.18938093
0.06781808 -1.0496259 -0.831716 -0.14271623 -0.14846063 0.6480817 -0.4201541 -0.269823
-0.42872995 -0.3648754 1.3869464 0.29921433 0.9171409 -1.7065679 -0.4371698 -1.2281954
0.6802354 -0.009722858 1.1096866 -0.8686179 -0.753825 0.4847429 1.8802077 -0.49216217
-2.3876207 0.35477978 0.24916118 0.3357985 1.1320354 0.41759723 1.1424536 -0.15003437
-0.09243373 -0.049433257 0.13776663 -0.09376166 0.95904356 -0.21745011 0.23042877 1.092911
-0.13606116 0.08399266 0.1088867 0.65631783 0.97702974 0.14401017 0.2771063 0.19300428
-1.0990009 0.28154835 0.76557696 0.5630997 2.7541463 1.2865728 2.5198517 0.23188123
-0.14381307 -0.27403864 1.8925463 -0.10205782 -0.6825526 0.088344716 -0.88460326 -0.08196666
0.7206694 0.3266747 0.43648812 -3.9728749 -0.8712481 -13.182923 -0.47030658 1.1033585
-1.1762336 0.6575394 0.5760915 0.76116776 0.9626003 0.65770066 -0.086470865 -0.012332276
-0.007417274 0.09225019 1.794614 0.8558471 -3.3223953 -0.85485184 -0.7081073 2.954399
0.06558331 -0.08597089 -0.17195578 -0.1560161 -0.086801305 -0.068043664 -0.09413537 -0.007327707
0.07386077 -0.11709278 -0.17764172 0.009066275 -0.056417476 -0.036945947 -0.16699472 -0.12129478
0.0017550506 -0.0016072822 -0.050893098 -0.029155258 0.05882469 -0.025258778 -0.048354574 -0.037939027
-0.20113787 -0.07742545 0.052848395 -0.13950737 -0.021890927 -0.017367499 -0.14958465 0.033167306
0.027615651 0.15275168 0.116304964 -0.00065523636 0.076420106 -0.030456824 -0.14765535 -0.036402144
-0.07553329 -0.038638946 -0.0904779 -0.03555253 -0.1245257 0.005652588 -0.19769529 -0.06609372
-0.12756309 -0.06565034 0.021645976 0.09823166 -0.083265275 -0.0423406 -0.11894735 0.12176414
0.15076552 -0.28085315 -0.21108282 -0.4006513 -0.13255277 0.044142734 0.06136255 0.11001693
0.12696876 -0.07209887 -0.0477096 0.10284849 0.0726317 -0.12682843 -0.16148716 0.037599918
0.021437109 -0.17452385 -0.1559842 -0.18463305 -0.42502972 -0.26377374 0.019783806 -0.048830967
-0.055675566 0.07327639 0.058132302 -0.012530528 -0.42432985 -0.4351185 -0.33026114 0.06766035
0.09038134 0.042180885 -0.44335255 -0.32214585 -0.42407793 -0.11104452 0.045224443 -0.053813394
-0.059513148 0.0009907319 -0.17361411 -0.021371596 -0.12933555 0.013311809 0.17664783 0.07304315
0.038525496 -0.6035628 -0.73423535 0.3275151 0.659476 1.2722914 -0.24826467 -0.3982372
-0.23310833 0.096524574 3.1451573 3.4414117 2.3580053 0.9420864 -0.90788317 -2.0293243
1.600232 1.0585979 1.962077 -1.3403491 0.22987829 2.9558485 0.59526414 1.1527739
3.813243 0.45354798 0.10842613 0.14114417 -0.980528 -0.7554333 0.48957828 -0.033133406
0.055072166 0.045697957 0.056383435 -0.29652196 0.4750471 0.5319816 0.025176836 -0.73138094
0.036816116 0.122943856 0.09238218 -0.07231116 0.042365205 0.026784584 -0.09223502 0.06627864
-0.15193175 -1.4651488 -0.30637053 2.976903 3.4558074 -0.89541864 -1.2520075 -0.10152194
00000000: a8b6 0cbc 5bee 50be b5fb 43be 21bd 923d
00000010: 4098 ce3b ecb8 52be 2c19 823e 13ed 413e
00000020: 35e4 8a3d 245a 86bf 57eb 54bf 3424 12be
00000030: 1006 18be afe8 253f 701e d7be 3e26 8abe
00000040: 7e82 dbbe f3d0 babe 7687 b13f 9f32 993e
00000050: bfc9 6a3f d170 dabf b8d4 dfbe 8235 9dbf
00000060: e823 2e3f 9f4c 1fbc 360a 8e3f be5d 5ebf
00000070: adfa 40bf 3930 f83e a5aa f03f aefc fbbe
00000080: c7ce 18c0 b2a5 b53e 1c24 7f3e c8ed ab3e
00000090: 89e6 903f 4ecf d53e eb3b 923f 9ca2 19be
000000a0: e54d bdbd 877a 4abd b212 0d3e 1d06 c0bd
000000b0: e183 753f 3eab 5ebe 85f5 6b3e 82e4 8b3f
000000c0: 9e53 0bbe 5804 ac3d fdff de3d 7204 283f
000000d0: 9f1e 7a3f 6777 133e e1e0 8d3e eaa2 453e
000000e0: 10ac 8cbf 1b27 903e dafc 433f 4d27 103f
000000f0: ef43 3040 6bae a43f 4045 2140 4672 6d3e
00000100: bc43 13be cb4e 8cbe f53e f23f b103 d1bd
00000110: c4bb 2ebf 13ee b43d 5c75 62bf 23de a7bd
00000120: ca7d 383f e841 a73e 5f7b df3e 9543 7ec0
00000130: 1e0a 5fbf 41ed 52c1 06cc f0be da3a 8d3f
00000140: d38e 96bf 8154 283f bc7a 133f e4db 423f
00000150: f96c 763f 125f 283f a317 b1bd 510d 4abc
00000160: 9b0c f3bb abed bc3d e9b5 e53f cc18 5b3f
00000170: 20a2 54c0 92d7 5abf 8546 35bf e014 3d40
00000180: 8b50 863d 8211 b0bd 2d15 30be afc2 1fbe
00000190: e2c4 b1bd 7a5a 8bbd 0bca c0bd 431d f0bb
000001a0: 5144 973d 57ce efbd b6e7 35be b78a 143c
000001b0: 0316 67bd a254 17bd aa00 2bbe 6669 f8bd
000001c0: ba09 e63a 71ab d2ba 4875 50bd 02d7 eebc
000001d0: 28f2 703d 7feb cebc 720f 46bd f465 1bbd
000001e0: 16f7 4dbe 3c91 9ebd 8f77 583d 05db 0ebe
000001f0: 9a54 b3bc 4946 8ebc b82c 19be 71da 073d
00000200: 383a e23c f06a 1c3e 4c31 ee3d 2bc4 2bba
00000210: 2582 9c3d 9780 f9bc f732 17be 6a1a 15bd
00000220: 33b1 9abd df43 1ebd 7a4c b9bd 889f 11bd
00000230: 5507 ffbd 5839 b93b a270 4abe 255c 87bd
00000240: e69f 02be af73 86bd e752 b13c ae2d c93d
00000250: fc86 aabd 566d 2dbd ab9a f3bd 7a5f f93d
00000260: 4762 1a3e fccb 8fbe 1826 58be 2b22 cdbe
00000270: eabb 07be 03cf 343d 4c57 7b3d 8e50 e13d
00000280: 1904 023e 93a8 93bd 246b 43bd 3ba2 d23d
00000290: eebf 943d 50df 01be e45c 25be 5f02 1a3d
000002a0: e09c af3c 61b6 32be 52ba 1fbe 7210 3dbe
000002b0: 7f9d d9be 5a0d 87be a611 a23c fb02 48bd
000002c0: 100c 64bd ef11 963d 231c 6e3d d84c 4dbc
000002d0: c341 d9be dac7 debe fd17 a9be 8291 8a3d
000002e0: da19 b93d ddc5 2c3d 1bff e2be 4df0 a4be
000002f0: be20 d9be 4f6b e3bd 443d 393d 6f6b 5cbd
00000300: 0fc4 73bd 72db 813a e6c7 31be 7c13 afbc
00000310: 8a70 04be c619 5a3c 2be3 343e a697 953d
00000320: e9cc 1d3d 1783 1abf d9f6 3bbf 0fb0 a73e
00000330: 6bd3 283f 72da a23f 1839 7ebe bfe5 cbbe
00000340: f3b3 6ebe adae c53d 424a 4940 1740 5c40
00000350: 8fe9 1640 932c 713f 086b 68bf 73e0 01c0
00000360: 67d4 cc3f 2380 873f 5725 fb3f 8f90 abbf
00000370: 3765 6b3e 9f2c 3d40 3b63 183f 188e 933f
00000380: 2c0c 7440 7137 e83e 850e de3d 1988 103e
00000390: e203 7bbf 1464 41bf 01aa fa3e e5b6 07bd
000003a0: 5a93 613d c82d 3b3d 51f2 663d bad1 97be
000003b0: 6039 f33e f22f 083f a73f ce3c c83b 3bbf
000003c0: 7fcc 163d fdc9 fb3d de32 bd3d e017 94bd
000003d0: 2387 2d3d 586b db3c b7e5 bcbd 18bd 873d
000003e0: ff93 1bbe ff89 bbbf 99dc 9cbe 9485 3e40
000003f0: f32b 5d40 283a 65bf c841 a0bf bcea cfbd

model.layers.0._temporal_conv2.conv_3.bias f4 [64]
1.945318 -1.5592579 -0.025250554 -0.29827 0.85721314 8.273664 -0.07840635 -1.0602174
-2.0111394 -0.0054916986 -0.051934004 -0.1649626 -0.24439205 4.4817367 -0.0070378897 -0.13730866
-0.036319315 -8.786238 -1.1665647 -0.8522329 1.167989 -1.0153357 -0.35027486 0.072586805
-0.12291037 -0.26818812 -0.4072299 -1.633142 -0.102725826 -0.10520626 3.1691177 2.22781
-0.15426904 2.684693 -0.97308403 -0.022061042 -0.17541297 0.40587655 0.026688227 -0.028350009
8.607143 -0.27281624 3.961702 -0.093028456 2.1933334 -2.1844556 -0.08184891 -0.23244394
10.641137 -0.28629714 0.31319228 -2.2664466 -5.7253113 -4.201093 5.846737 11.330299
-0.96330637 -0.06016186 0.74334675 -0.99658877 2.8139737 0.0049002552 -1.2973183 -3.031026
00000000: 2e00 f93f c395 c7bf 40da cebc d8b6 98be
00000010: 5272 5b3f ee60 0441 8293 a0bd 34b5 87bf
00000020: 82b6 00c0 b5f3 b3bb c0b8 54bd f5eb 28be
00000030: e941 7abe 636a 8f40 199e e6bb a49a 0cbe
00000040: 90c3 14bd 6e94 0cc1 fe51 95bf ef2b 5abf
00000050: aa80 953f 85f6 81bf 3a57 b3be 64a8 943d
00000060: 6fb8 fbbd f44f 89be 7080 d0be cc0a d1bf
00000070: eb61 d2bd 6176 d7bd d3d2 4a40 7094 0e40
00000080: b4f8 1dbe 03d2 2b40 091c 79bf 5cb9 b4bc
00000090: 759f 33be 0dcf cf3e 45a1 da3c 473e e8bc
000000a0: dcb6 0941 92ae 8bbe 878c 7d40 b485 bebd
000000b0: 935f 0c40 1fce 0bc0 67a0 a7bd c905 6ebe
000000c0: 1942 2a41 8a95 92be bd5a a03e 760d 11c0
000000d0: c035 b7c0 5b6f 86c0 7818 bb40 e848 3541
000000e0: 3f9b 76bf 486c 76bd f94b 3e3f 7120 7fbf
000000f0: 2518 3440 5292 a03b 870e a6bf 54fc 41c0

model.layers.0._batch_norm.weight f4 [288]
0.43533042 0.05991391 0.05578508 0.011239835 0.029723039 -0.23105669 0.0010756277 0.04750435
0.01603492 0.06504617 0.055400766 1.9097104 0.008324472 0.015655225 0.090151474 1.1303232
0.00052721566 0.05939686 0.0008036952 -0.019216228 -0.7024662 0.07069341 -0.6033445 0.59655255
0.05321046 0.05942946 0.22319269 0.059529345 0.48707992 0.03459408 -4.4694695 -0.0036853098
0.0058314926 -0.022538202 0.023483688 0.011180836 0.01049694 0.014542518 0.0380032 0.05778526
-0.021518802 -0.0034297453 0.0579798 0.0028603743 0.020524783 0.24431911 0.035114408 0.017892838
0.046160083 0.08242428 0.0516188 0.20260255 -0.02702715 2.1913157 -0.058995254 0.47573566
1.5678723 2.0377564 -2.9589067 0.4337711 0.0034718364 0.01112755 0.01525292 0.07343753
0.113013335 1.3103489 -0.016978227 1.7155994 0.0072312686 0.0025434862 0.036130324 0.0021474021
0.031157816 0.019547846 0.050946463 0.032821532 0.052922513 -2.3951488 0.00046247386 0.006966382
0.024045654 1.8434366 -3.0324447 0.03199953 -0.011249262 0.06904499 1.2640016 0.14048027
0.06836053 0.038274564 0.93039286 0.0255413 0.052579287 0.7727845 11.212823 4.8726234
3.4954176 -0.03661618 0.06694237 0.0032567782 0.02308154 0.018238897 0.67224824 1.4852136
0.0880823 0.015920805 0.0031518787 0.0040661627 0.035654962 0.00022929328 0.033731867 0.03163148
0.010193791 -2.8412032 0.024348296 0.26731092 -0.008610049 1.2122333 0.024146773 8.815421
0.077975184 0.0032308148 -3.275092 -0.038634878 3.2623937 0.029979022 0.041201137 0.10302578
0.04673029 0.057854418 0.21851991 -0.009137729 1.5476317 0.06189302 -0.002178992 0.026565233
0.03144689 0.40197495 0.21048962 1.1108828 -0.057536542 0.0061359843 0.0704211 0.043885056
-1.0835894 -0.30702105 0.005694653 0.08449306 0.00493111 0.040617805 2.9372983 0.9394941
0.28241047 1.8748679 0.01413905 -0.0029894155 0.9127371 -0.0046504023 0.04726637 0.35028467
0.0481976 -1.0762408 0.1539072 1.6288705 -0.09499349 -0.030378658 0.032181166 0.2276268
2.545517 2.2476528 -0.004407228 0.0026754464 0.029121632 0.8156925 0.012632412 -0.001185111
0.8865331 1.8832401 1.5363545 1.6556307 0.8167596 0.03136055 -0.011402492 1.4601834
0.08731328 1.5790495 0.0026407589 -0.045045614 0.0035976826 0.019810507 1.0455722 0.013335267
4.4607873 0.042128503 0.05261625 1.1156508 2.832068 2.2317758 1.5550575 5.0451465
4.0286756 0.024343695 1.3407624 0.38230014 0.2386981 0.059142016 0.046616554 0.06898004
0.015793318 -3.9420142 0.0467804 0.12675494 0.044281323 -2.5422242 -0.002374885 -0.9431512
1.8432167 0.91947794 0.0022531939 0.3963526 0.00031930543 0.025780464 7.0999517 0.9710098
0.19498943 -5.6401258 4.9149723 2.121498 1.1960913 0.8316264 0.08425396 1.3967464
0.012455032 0.0035587426 0.11188146 0.008465209 0.0016501589 0.04712737 -0.002968234 -0.018056877
0.028246127 0.027734654 7.335671 4.7321305 0.027466748 0.019166427 0.011115221 0.058973316
0.0836648 0.00025441212 0.02443262 -0.024320228 0.7034765 7.5481825 5.5621285 0.037177965
00000000: a1e3 de3e 4a68 753d e57e 643d 4927 383c
00000010: bb7d f33c 209a 6cbe 14fc 8c3a ec93 423d
00000020: aa5b 833c ed36 853d eaeb 623d 6471 f43f
00000030: 5e63 083c 633f 803c 56a1 b83d 6eae 903f
00000040: d834 0a3a 1f4a 733d 12af 523a 5a6b 9dbc
00000050: d3d4 33bf b5c7 903d c974 1abf abb7 183f
00000060: 36f3 593d 4e6c 733d a08c 643e 0bd5 733d
00000070: 8a62 f93e 86b2 0d3d e505 8fc0 3d85 71bb
00000080: 1b16 bf3b 09a2 b8bc dd60 c03c d32f 373c
00000090: 5cfb 2b3c be43 6e3c 3ea9 1b3d 3db0 6c3d
000000a0: 3348 b0bc 94c5 60bb 3a7c 6d3d 1e75 3b3b
000000b0: 9723 a83c ca2e 7a3e 20d4 0f3d 0094 923c
000000c0: 5b12 3d3d 10ce a83d 3c6e 533d 0b77 4f3e
000000d0: 0b68 ddbc 843e 0c40 02a5 71bd a093 f33e
000000e0: 0ab0 c83f 9a6a 0240 ba5e 3dc0 3f17 de3e
000000f0: c087 633b 5450 363c 62e7 793c 6a66 963d
00000100: 8973 e73d 83b9 a73f ec15 8bbc c398 db3f
00000110: 47f4 ec3b 9eb0 263b 64fd 133d 6ebb 0c3b
00000120: ad3e ff3c ce22 a03c 3dad 503d df6f 063d
00000130: 47c5 583d 1e4a 19c0 3178 f239 3f46 e43b
00000140: 64fb c43c bbf5 eb3f 9313 42c0 f011 033d
00000150: d34e 38bc 7667 8d3d ceca a13f 0fda 0f3e
00000160: 9b00 8c3d cac5 1c3d 3a2e 6e3f fd3b d13c
00000170: 615d 573d 34d5 453f b967 3341 88ec 9b40
00000180: ecb4 5f40 d9fa 15bd 1519 893d ac6f 553b
00000190: 7f15 bd3c bd69 953c 7618 2c3f 7b1b be3f
000001a0: 7e64 b43d 596c 823c c08f 4e3b 723d 853b
000001b0: f00a 123d 726e 7039 6d2a 0a3d 0390 013d
000001c0: dc03 273c 46d6 35c0 1476 c73c fadc 883e
000001d0: 2a11 0dbc 762a 9b3f 74cf c53c f70b 0d41
000001e0: 74b1 9f3d 14bc 533b 1b9b 51c0 9b3f 1ebd
000001f0: 0fcb 5040 9196 f53c 86c2 283d 2eff d23d
00000200: 4368 3f3d c1f8 6c3d afc3 5f3e 6ab6 15bc
00000210: cc18 c63f 8983 7d3d 6bcd 0ebb 559f d93c
00000220: 74ce 003d a9cf cd3e 978a 573e 6831 8e3f
00000230: 70ab 6bbd 5e10 c93b f038 903d d1c0 333d
00000240: 0fb3 8abf dd31 9dbe 369a ba3b b30a ad3d
00000250: 2695 a13b db5e 263d b2fc 3b40 af82 703f
00000260: 1b98 903e acfb ef3f 79a7 673c 12ea 43bb
00000270: 23a9 693f 6762 98bb 629a 413d 8358 b33e
00000280: d96a 453d 42c2 89bf d999 1d3e d47e d03f
00000290: f28b c2bd aadc f8bc 66d0 033d 0017 693e
000002a0: c0e9 2240 8bd9 0f40 826a 90bb 8b56 2f3b
000002b0: 7d90 ee3c 39d1 503f 2df8 4e3c ba55 9bba
000002c0: d5f3 623f 030e f13f 44a7 c43f b5eb d33f
000002d0: 2817 513f ec73 003d 85d1 3abc 4ae7 ba3f
000002e0: 4ed1 b23d 4b1e ca3f 9510 2d3b c081 38bd
000002f0: 19c7 6b3b a549 a23c 4fd5 853f 2a7c 5a3c
00000300: c5be 8e40 f08e 2c3d 2384 573d a5cd 8e3f
00000310: 9a40 3540 6ad5 0e40 200c c73f d771 a140
00000320: e9ea 8040 6e6c c73c 1a9e ab3f d8bc c33e
00000330: 466d 743e e63e 723d 00f1 3e3d 6845 8d3d
00000340: fd60 813c f649 7cc0 ce9c 3f3d 0ccc 013e
00000350: 5560 353d cdb3 22c0 f5a3 1bbb 5b72 71bf
00000360: 86ee eb3f e862 6b3f 52aa 133b baee ca3e
00000370: 7368 a739 8d31 d33c ce32 e340 1994 783f
00000380: 4fab 473e e97b b4c0 7447 9d40 a0c6 0740
00000390: 8519 993f 78e5 543f 578d ac3d 96c8 b23f
000003a0: 3110 4c3c cb39 693b 1b22 e53d a9b1 0a3c
000003b0: 254a d83a a108 413d b486 42bb 04ec 93bc
000003c0: 6c64 e73c c933 e33c d1bd ea40 9d6d 9740
000003d0: f201 e13c e902 9d3c 9e1c 363c 018e 713d
000003e0: 7358 ab3d 9e62 8539 eb26 c83c 373b c7bc
000003f0: 0917 343f b68a f140 f5fc b140 ec47 183d

model.layers.0._batch_norm.bias f4 [288]
0.8170872 0.37379837 0.43216157 0.24003604 0.25295952 -0.28015628 0.050690547 0.4236761
0.18822904 0.41896158 0.69442916 0.40852353 0.052673075 0.07696316 0.67250323 1.4100213
0.045450654 0.34530282 0.045259196 0.2967894 -0.6538998 0.63219905 1.4836338 1.4976695
0.26174366 0.3912733 0.42762536 0.47779927 0.5289898 0.2777323 -1.0790269 0.23379855
0.06114961 0.36942595 0.38920018 0.14080764 0.27776906 0.16319467 0.25581974 0.3448836
0.22641833 0.047173698 -0.31280196 0.048460685 0.1991416 0.50769156 0.28538594 0.6994188
0.31446797 0.7063412 2.312028 1.2310066 1.1564577 1.1898508 1.5184346 2.8358967
1.55347 2.427737 0.16581762 0.9960933 0.29677877 0.12983102 0.1969711 0.49435005
0.6826268 1.6345927 0.9621813 -0.3418837 0.48942477 0.050546944 0.1713303 0.04607777
0.24551825 0.54881024 0.38195163 0.14862938 0.29547244 -1.1632668 0.0452601 -0.2876262
0.58568645 1.5588489 -1.3008219 0.23861378 0.34814397 0.42030472 1.8399973 0.8037988
0.49056882 0.4549131 -0.069309235 0.09140452 0.46017474 1.3375276 2.321124 1.054946
1.7856741 0.57749784 0.6030561 0.7582966 0.0827255 0.13958004 0.13722374 1.3170797
0.68785393 0.27919382 0.04692424 0.04879604 0.23514873 0.041706484 0.26855734 0.21228607
0.053336482 -1.1210932 0.09977896 1.8394866 0.6560612 2.3284478 0.8072385 0.6919299
0.47295046 0.26934114 -0.72666 0.53517765 0.022922019 0.23984331 0.30042434 0.6294594
0.29383993 0.44464314 1.4570451 0.75530314 1.9619797 0.49532673 -0.08574418 0.12896132
0.2590412 1.0302999 0.38981286 1.4428564 0.17220305 0.05559596 0.4381714 0.20484886
-0.56578755 0.48446703 0.14972547 0.42372882 -0.1139526 0.47413644 1.4118989 1.9117254
1.6219672 0.29272172 0.28318703 0.051072508 1.4352616 0.079122365 0.3374344 1.1870899
1.2122847 1.0521972 0.32108453 -0.19227841 1.3860584 1.5008962 1.4658362 1.8347324
1.7079037 1.625648 0.7639249 0.23036821 0.74678373 0.73384136 0.27345657 0.043749828
0.62699175 1.8495129 0.45793942 1.6536981 2.0037844 2.445192 0.032840557 2.196973
0.6557496 2.5517278 0.05177665 1.4256626 0.955874 0.4760067 0.6415992 0.5334266
-0.28200153 0.66727525 0.26774824 1.4188378 2.5363061 1.7156228 1.7679836 -2.3600042
1.3116809 0.0668691 -1.347391 0.6136768 0.96004313 0.96192515 0.49434265 0.657917
0.8813108 0.8871418 0.6870049 0.6918419 0.5800831 1.2648306 0.83108026 2.2737544
-0.5415575 1.804512 0.04831031 0.6897352 0.042141438 0.14439659 -0.051279634 1.7514766
1.1702774 0.64341414 1.1127478 2.0159156 1.6528671 1.3687844 0.4998713 2.1841278
0.11178975 0.056152765 0.719364 0.070985116 0.30926102 0.37541154 0.049356222 0.12369229
0.085867316 0.5726456 -0.29242757 1.210695 0.16781582 0.4410197 0.6369484 0.55276835
0.51500076 0.9542768 0.8134801 0.08962955 0.49489403 1.4283143 1.0085062 0.37094608
00000000: a02c 513f 8062 bf3e 4844 dd3e 02cc 753e
00000010: e983 813e a570 8fbe e4a0 4f3d 13ec d83e
00000020: 1dbf 403e 2282 d63e 1cc6 313f ff29 d13e
00000030: b9bf 573d dc9e 9d3d 2c29 2c3f 947b b43f
00000040: 772a 3a3d 88cb b03e b561 393d c8f4 973e
00000050: fa65 27bf ccd7 213f b6e7 bd3f a2b3 bf3f
00000060: 4403 863e f954 c83e b6f1 da3e 1ba2 f43e
00000070: e06b 073f ee32 8e3e 8e1d 8abf e368 6f3e
00000080: 0378 7a3d 6625 bd3e 3f45 c73e e12f 103e
00000090: bf37 8e3e 811c 273e cefa 823e 9594 b03e
000000a0: 35da 673e 3539 413d 9427 a0be b67e 463d
000000b0: c7eb 4b3e 13f8 013f 1b1e 923e 1c0d 333f
000000c0: f201 a13e c7d2 343f 44f8 1340 a091 9d3f
000000d0: ce06 943f 084d 983f 115c c23f 557f 3540
000000e0: 1bd8 c63f 0b60 1b40 18cc 293e f8ff 7e3f
000000f0: 63f3 973e 6cf2 043e cbb2 493e 731b fd3e
00000100: a1c0 2e3f 553a d13f 8451 763f 610b afbe
00000110: e295 fa3e 500a 4f3d 3671 2f3e 0bbc 3c3d
00000120: 2369 7b3e d47e 0c3f 2a8f c33e 4d32 183e
00000130: 2a48 973e ede5 94bf a862 393d be43 93be
00000140: 8cef 153f 5c88 c73f 5581 a6bf 2c57 743e
00000150: ed3f b23e 2e32 d73e 0885 eb3f c2c5 4d3f
00000160: d62b fb3e 5fea e83e 00f2 8dbd 4b32 bb3d
00000170: 069c eb3e 1b34 ab3f 4c8d 1440 7808 873f
00000180: f890 e43f e6d6 133f e261 1a3f ba1f 423f
00000190: fd6b a93d 12ee 0e3e 6184 0c3e 1196 a83f
000001a0: 3217 303f 7ef2 8e3e a233 403d 5bde 473d
000001b0: d4ca 703e 6bd4 2a3d 5980 893e 8561 593e
000001c0: 5b77 5a3d fb7f 8fbf e958 cc3d 4c74 eb3f
000001d0: a0f3 273f 4a05 1540 2fa7 4e3f 5122 313f
000001e0: 9026 f23e 15e7 893e 6406 3abf 6701 093f
000001f0: f5c6 bb3c 7c99 753e 38d1 993e 4024 213f
00000200: 3072 963e 44a8 e33e 7480 ba3f 8c5b 413f
00000210: 2722 fb3f 779b fd3e a59a afbd 700e 043e
00000220: 0ca1 843e dee0 833f 8d95 c73e 85af b83f
00000230: ff55 303e 97b8 633d 0058 e03e e6c3 513e
00000240: 74d7 10bf 100c f83e a251 193e fcf2 d83e
00000250: fb5f e9bd 03c2 f23e 1ab9 b43f 6bb3 f43f
00000260: 9f9c cf3f 9fdf 953e e4fd 903e 6831 513d
00000270: a7b6 b73f e80a a23d 34c4 ac3e 90f2 973f
00000280: 252c 9b3f 66ae 863f 3165 a43e a2e4 44be
00000290: 5d6a b13f 5e1d c03f 85a0 bb3f 83d8 ea3f
000002a0: 979c da3f 3c15 d03f 9590 433f a5e5 6b3e
000002b0: 382d 3f3f 07dd 3b3f 8002 8c3e 0533 333d
000002c0: 8882 203f d7bc ec3f 0977 ea3e 61ac d33f
000002d0: 013e 0040 077e 1c40 d283 063d 359b 0c40
000002e0: 35df 273f 824f 2340 c113 543d 1d7c b63f
000002f0: 29b4 743f 26b7 f33e d83f 243f a58e 083f
00000300: 8162 90be 8dd2 2a3f 4c16 893e 7a9c b53f
00000310: d752 2240 8799 db3f 494d e23f 4f0a 17c0
00000320: 29e5 a73f abf2 883d 4f77 acbf ec19 1d3f
00000330: 63c5 753f ba40 763f 7b1a fd3e 406d 283f
00000340: 969d 613f ba1b 633f 8edf 2f3f 8d1c 313f
00000350: 5380 143f f8e5 a13f adc1 543f 3185 1140
00000360: 83a3 0abf 40fa e63f 08e1 453d 7c92 303f
00000370: 809c 2c3d b3dc 133e 980a 52bd 6330 e03f
00000380: a6cb 953f cab6 243f 856e 8e3f c304 0140
00000390: 2691 d33f 5434 af3f 22ef ff3e c0c8 0b40
000003a0: 06f2 e43d 7100 663d 3d28 383f a560 913d
000003b0: 7657 9e3e f135 c03e c029 4a3d 6252 fd3d
000003c0: 34db af3d e798 123f 11b9 95be 0ef8 9a3f
000003d0: e9d7 2b3e 56cd e13e 0d0f 233f 3a82 0d3f
000003e0: 17d7 033f 7c4b 743f 3b40 503f b38f b73d
000003f0: c062 fd3e 01d3 b63f bb16 813f a5ec bd3e
