examples/simple_stgcn/checkpoints/model.pt (torch, 650369 bytes, 12 tensors)

model.gat.linear.weight f4 [20, 20]
0	0xbe1ee272	-0.1551607
1	0x3e709797	0.23495327
2	0x3d94bab0	0.0726217
3	0x3e5f1be6	0.21787986
4	0x3d32931a	0.04359732
5	0x3e1aecb6	0.1512936
6	0xbd2b2ae9	-0.04178897
7	0xbe185297	-0.14875256
8	0x3d856fa1	0.06515432
9	0x3c279c26	0.0102301
10	0x3bce14c5	0.006289097
11	0xbda397cf	-0.079879396
12	0x3d0b9e5f	0.03408658
13	0x3dc188a0	0.09449887
14	0x3de2cdca	0.110744074
15	0xbe19ddb1	-0.15025975
16	0x3e0c6670	0.13710952
17	0x3d57674c	0.052588746
18	0x3e3c3776	0.18380532
19	0x3e3feb2c	0.18742055
20	0xbe02ac97	-0.1276115
21	0x3e86d6c5	0.2633573
22	0xbe2f4e06	-0.17119607
23	0x3e3562fc	0.17713541
24	0x3d835677	0.06412976
25	0x3e1e3967	0.15451585
26	0xbd93d81b	-0.07218953
27	0x3e3b562f	0.18294595
28	0xbd7e5695	-0.06209429
29	0xbe1882c3	-0.14893632
30	0x3dfc8c02	0.12331392
31	0x3e2f3976	0.17111763
32	0x3e8a6ba1	0.2703524
33	0x3ccf8811	0.025333436
34	0x3e86f6e8	0.2636025
35	0x3e44c74e	0.19216654
36	0xbd7fb832	-0.06243152
37	0xbdfddb73	-0.12395372
38	0x3e3248d1	0.1741059
39	0xbd9737bb	-0.073836766
40	0x3d116f94	0.0355068
41	0xbe809b70	-0.2511859
42	0x3e0f6cb9	0.14006318
43	0x3ce5e2d4	0.028062262
44	0xbdb52649	-0.08845193
45	0x3d911fb5	0.07086126
46	0xbe4a4fcf	-0.19757007
47	0xbddf9ef8	-0.10918993
48	0xbd4f808e	-0.05065971
49	0xbe2c682c	-0.16836613
50	0xbde656de	-0.11247037
51	0xbdf9e058	-0.12200993
52	0x3e2a55e9	0.16634335
53	0x3e28ae12	0.16472653
54	0x3e12bd07	0.1432992
55	0x3de9f6f1	0.114240535
56	0xbe7e7bcb	-0.24851911
57	0x3d02e1d3	0.031953644
58	0x3d893fc8	0.067016184
59	0xbe4d67f6	-0.20059189
60	0x3d37fb99	0.044917677
61	0xbe2e9d91	-0.17052294
62	0x3cd8a840	0.026447415
63	0x3cfc5149	0.030800479
64	0x3e16035b	0.14649718
65	0xbe1bcbb5	-0.15214427
66	0xbe55d9b7	-0.20883833
67	0x3e23bd2d	0.15990134
68	0x3d5ac541	0.053410772
69	0x3d931151	0.07181037
70	0x3d028267	0.031862643
71	0xbdf26f37	-0.11837619
72	0x3dd148ae	0.10218941
73	0xbe6d8d59	-0.23198451
74	0xbca7aefb	-0.02046918
75	0x3d573bd9	0.05254731
76	0x3de2ca20	0.110737085
77	0xbe22b48c	-0.15889186
78	0xbe3d6f98	-0.18499601
79	0x3d4a6cd6	0.0494202
80	0xbe679c01	-0.22618105
81	0xbe0dc238	-0.1384362
82	0xbe1c6a05	-0.15274818
83	0xbe2084d4	-0.1567567
84	0xbdba106a	-0.09085162
85	0xbdad2966	-0.08455162
86	0xbe11f82c	-0.14254826
87	0xbe7c6720	-0.24648714
88	0x3e3e6f14	0.1859706
89	0xbb3fd9f1	-0.002927419
90	0xbdbd3b58	-0.092398345
91	0x3dd8fb20	0.10594773
92	0xbe5b41b5	-0.21411784
93	0x3de3747a	0.111062005
94	0x3e355b56	0.17710623
95	0xbe2f564b	-0.17122762
96	0xbe657661	-0.22408439
97	0xbdca07e9	-0.0986479
98	0xbe2a99e9	-0.16660275
99	0x3d9c3fe9	0.076293774
100	0xbe7146e9	-0.23562206
101	0xbe089b96	-0.13340601
102	0x3e0c0f93	0.13677816
103	0xbda58415	-0.08081833
104	0xbdc11b2c	-0.09429011
105	0xbe1c1bc8	-0.15244973
106	0x3dac4a72	0.08412637
107	0x3b1ecd74	0.0024231346
108	0xbd4d1a8c	-0.050074145
109	0xbdd41724	-0.10355976
110	0x3dafc631	0.08582724
111	0x3dbb5f8b	0.09149083
112	0x3df0fccd	0.11766968
113	0x3dc626a0	0.09675336
114	0x3b1219dc	0.0022293245
115	0xbe0d5e25	-0.13805445
116	0x3e066c8e	0.13127348
117	0x3d17ceb5	0.037062366
118	0xbdf31a01	-0.11870194
119	0x3e67f9e1	0.22653915
120	0x3e3d87ee	0.18508884
121	0xbdea2a62	-0.11433865
122	0xbd513046	-0.051071428
123	0xbc821f94	-0.015884198
124	0xbd8ea26f	-0.069645755
125	0x3e284e8a	0.1643621
126	0xbdc949c0	-0.0982852
127	0x3e88cd3d	0.26719084
128	0xbd05747f	-0.032581802
129	0x3e436ddd	0.19084878
130	0x3d896f82	0.067107216
131	0xbd1d84c6	-0.0384567
132	0x3e55fb8c	0.20896739
133	0xbde40273	-0.1113328
134	0xbd71cf9a	-0.059035875
135	0x3db09ede	0.086240515
136	0x3e72dc96	0.2371696
137	0xbd10ede8	-0.035383135
138	0xbd9cfa62	-0.07664944
139	0xbda7f767	-0.08201485
140	0xbdf84ccf	-0.12124025
141	0xbd8ab853	-0.06773438
142	0xbd32a443	-0.043613683
143	0xbdeed0c8	-0.116609156
144	0x3da66f3d	0.08126686
145	0x3c2cc1ea	0.01054428
146	0xbe0a7446	-0.13520917
147	0xbe33c2cf	-0.17554782
148	0x3d61170c	0.05495362
149	0x3c0c89fb	0.008577819
150	0x3e2b5377	0.16731058
151	0xbcdf0d9e	-0.027228173
152	0xbe35b049	-0.17743029
153	0xbe1ede60	-0.15514517
154	0xbd7dc6e3	-0.06195725
155	0xbd9c0f14	-0.076200634
156	0xbc157402	-0.009121897
157	0xbd347d71	-0.044064943
158	0x3db813cd	0.08988152
159	0xbd8d192a	-0.06889565
160	0x3e2541f0	0.16138434
161	0x3d3131d2	0.043260403
162	0xbd521259	-0.05128703
163	0x3e572295	0.21009286
164	0x3d35ff81	0.04443312
165	0xbe1fc82d	-0.15603705
166	0xbdfcd538	-0.12345356
167	0x3e083553	0.13301592
168	0x3dba2760	0.090895414
169	0x3e29b458	0.16572702
170	0xbd098fba	-0.033584334
171	0x3e0c710d	0.13715
172	0x3dcfc2fa	0.10144611
173	0x3d831f8b	0.06402501
174	0xbd6d94ae	-0.05800312
175	0x3e688930	0.22708583
176	0x3d3b80ee	0.045777254
177	0xbd5c19fd	-0.05373572
178	0xbc0120ff	-0.007881402
179	0x3e54f068	0.20794833
180	0x3e05b686	0.13057908
181	0x3cdf01ab	0.027222475
182	0x3e56d8ba	0.20981112
183	0x3de8e920	0.1137259
184	0xbe114175	-0.14185126
185	0xbe576839	-0.21035852
186	0x3e11a973	0.14224796
187	0x3e4afc8d	0.19822903
188	0xbe1997f9	-0.14999379
189	0x3da8a95c	0.08235428
190	0xbc411e9c	-0.011787083
191	0xbcf34f61	-0.029700937
192	0xbd8d1fa5	-0.06890801
193	0x3d4db6ba	0.05022309
194	0x3d1b6e18	0.03794679
195	0x3e105da0	0.14098215
196	0x3d7c5d73	0.061612558
197	0x3de2cd93	0.110743664
198	0x3e3e4065	0.18579252
199	0x3d7370c1	0.059433702
200	0x3ca02b30	0.019551843
201	0xbdef86c3	-0.11695626
202	0x3e7e000d	0.24804707
203	0x3d6b02e2	0.057375796
204	0x3e173ee1	0.1477008
205	0x3e570512	0.20998028
206	0xbd1e986a	-0.038719572
207	0x3e27d010	0.16387963
208	0xbd074d87	-0.03303292
209	0x3e561b94	0.20908958
210	0x3e20a72b	0.1568877
211	0xbd5f11cd	-0.054460336
212	0x3cb1b64b	0.02169337
213	0xbd91e289	-0.07123286
214	0xbdb8faa5	-0.09032182
215	0xbd4f525a	-0.050615646
216	0x3c5c3f74	0.013442863
217	0xbdb18e3f	-0.086697094
218	0xbe39b4dc	-0.18135399
219	0xbdbf392c	-0.093370765
220	0xbd9b38da	-0.07579203
221	0xbddda43c	-0.10822341
222	0x3e04d474	0.1297167
223	0x3e005635	0.12532885
224	0x3db0b1ac	0.08627638
225	0x3d8145d4	0.06312147
226	0xbe5ad180	-0.2136898
227	0x3e1d869d	0.15383382
228	0xbe6d8898	-0.23196638
229	0xbddd5f11	-0.10809148
230	0xbe44e800	-0.19229126
231	0x3d37a7e8	0.044837862
232	0xbe640c6c	-0.22270364
233	0xbe15ff9d	-0.1464829
234	0xbe35e389	-0.17762579
235	0xbe31627d	-0.17322727
236	0xbe2556eb	-0.16146438
237	0x3e3d0ae0	0.1846118
238	0xbd5e89df	-0.054330703
239	0x3d033502	0.032032974
240	0xbe8a3847	-0.2699606
241	0x3e8577e6	0.26068038
242	0x3c5be026	0.01342014
243	0xbe68902b	-0.22711246
244	0x3e0c93d1	0.13728262
245	0xbcee48c1	-0.029087426
246	0x3e36e014	0.17858917
247	0xbe418dcb	-0.18901746
248	0xbe1a73db	-0.15083258
249	0xbdf4ea90	-0.11958802
250	0x3e1d8e84	0.15386397
251	0x3cf9889b	0.030460646
252	0xbe5f1970	-0.21787047
253	0x3ceaf1ea	0.028679807
254	0x3d18cefe	0.037306778
255	0x3e0eec8c	0.13957423

model.gat.linear.bias f4 [20]
0	0xbdaca993	-0.08430781
1	0x3dddd0b1	0.1083082
2	0xbd6dccb2	-0.05805654
3	0xbe6d5c69	-0.23179783
4	0xbdc33f63	-0.095335744
5	0xbe8c6b70	-0.27425718
6	0xbe2d5af3	-0.16929226
7	0xbe2c3915	-0.1681865
8	0x3e1f9644	0.15584666
9	0xbd336660	-0.043798804
10	0xbdab2266	-0.0835617
11	0x3d3be367	0.045871165
12	0x3cd5f624	0.026118346
13	0xbe630d98	-0.22173154
14	0x3defc0b0	0.11706674
15	0x3cd8d095	0.026466647
16	0xbe54a938	-0.20767677
17	0x3e2c041c	0.16798443
18	0xbdb5dd3e	-0.08880089
19	0xbdd8a817	-0.105789356

model.lstm1.weight_ih_l0 f4 [128, 288]
0	0x3c1ada71	0.009451495
1	0xbd9c7542	-0.07639553
2	0x3d0b8794	0.034064844
3	0x3cee7769	0.029109674
4	0xbd5a7018	-0.053329557
5	0xbe178068	-0.14795077
6	0xbd1f2901	-0.038857464
7	0x3c3fbb5a	0.011702383
8	0x3de39019	0.11111469
9	0xbcc636b6	-0.02419601
10	0x3d1083fa	0.035282113
11	0xba6e0a3a	-0.00090805034
12	0xbd2ebe3c	-0.04266189
13	0xbc579653	-0.013158399
14	0xbd1f4524	-0.038884297
15	0xbd6f776e	-0.058463506
16	0x3c92c940	0.01791823
17	0xbdde35da	-0.10850115
18	0xbd259037	-0.040420737
19	0xbdb228e0	-0.086992025
20	0x3cbc3496	0.022974294
21	0xbdc3af1e	-0.09554885
22	0xbda1b67b	-0.078961335
23	0x3d8e0de2	0.06936242
24	0x3d17cffb	0.03706358
25	0xbda7e208	-0.08197409
26	0xbd39a732	-0.045325466
27	0xbd7fc17a	-0.062440373
28	0xbe10293a	-0.14078227
29	0xbdac31b4	-0.084079176
30	0xbdaad503	-0.0834141
31	0xbe15b509	-0.1461984
32	0xbca6bd58	-0.020353958
33	0x3d157f59	0.0364984
34	0xbcd7e8a8	-0.026356056
35	0x3cafceb9	0.021460878
36	0xbc9e2989	-0.019306915
37	0xbd992950	-0.07478583
38	0xbcab61da	-0.020920683
39	0xbdd46cf7	-0.10372346
40	0xbe1f5226	-0.15558681
41	0xbb29b1fc	-0.002589344
42	0xbdf26ec1	-0.11837531
43	0x3db68914	0.08912864
44	0x3d8fe36e	0.07025801
45	0x3b3aae48	0.0028485227
46	0xbcdb6619	-0.026782082
47	0xbe11f7ef	-0.14254735
48	0xbda7bb6b	-0.08190044
49	0x3d651423	0.055927407
50	0x3d4a4ae7	0.04938784
51	0xbca61720	-0.020274699
52	0xbd219cbe	-0.03945612
53	0xbe01a5e6	-0.12660941
54	0xbd392e79	-0.045210335
55	0xbdf24df7	-0.11831277
56	0xbc9ec268	-0.01937981
57	0xbdc20265	-0.09473113
58	0x3ba15dab	0.004924496
59	0xbe0e9f54	-0.13927966
60	0xbd2e9f89	-0.042632613
61	0xbd7bcd7d	-0.061475266
62	0xbcb7c72a	-0.022433836
63	0xbdeedd61	-0.116633184
64	0xbdd131a0	-0.10214543
65	0xbde2c69f	-0.1107304
66	0x3d85c3ea	0.06531508
67	0xbd358b2f	-0.04432219
68	0x3bca462b	0.0061729155
69	0xbd4e1b6c	-0.05031912
70	0xbd4c8749	-0.049933705
71	0xbd05cb2b	-0.03266446
72	0x3d8bbb68	0.06822854
73	0xbd1acaaf	-0.03779095
74	0xbd1889d5	-0.037240822
75	0xbd2740b8	-0.040833205
76	0x3d82b0d8	0.063813865
77	0x3b2784e6	0.0025561391
78	0x3c8e6d0a	0.017385978
79	0x3bef0d6a	0.0072953003
80	0x399fa1e0	0.0003044745
81	0xbc3f50d5	-0.011676987
82	0xbd782371	-0.060580675
83	0xbe191e29	-0.14952911
84	0xbdd52720	-0.10407853
85	0xbd154ec2	-0.036452062
86	0xbd69a93d	-0.057046164
87	0xbd1eee45	-0.03880145
88	0xbe18b98a	-0.14914528
89	0x3d4effc3	0.050536882
90	0xbdb44bae	-0.08803497
91	0x3db621d0	0.08893168
92	0x3d13d804	0.03609468
93	0xbdd90bb9	-0.10597939
94	0x3cd1afbf	0.025596498
95	0xbdbe0b43	-0.09279492
96	0x3c6ca079	0.014442557
97	0xbd11ac88	-0.03556493
98	0x3cb1a36f	0.021684377
99	0x3b7d23e2	0.0038626124
100	0xbe17a4b1	-0.14808919
101	0xbd18cd44	-0.03730513
102	0x3ba698bf	0.0050841267
103	0x3baccd2d	0.0052734823
104	0xbe05b1fb	-0.13056175
105	0x3d6942ad	0.056948353
106	0xbe21d0b1	-0.15802266
107	0xbe09c763	-0.13454966
108	0xbd68c209	-0.05682567
109	0xbdc1d4dc	-0.09464428
110	0xbe046d72	-0.12932375
111	0xbd23a794	-0.039954737
112	0xbe072aac	-0.13199872
113	0x3d12921d	0.035783876
114	0xbd3059aa	-0.04305426
115	0x3d9d0434	0.07666817
116	0xbd8e75f2	-0.0695609
117	0xbd621437	-0.05519506
118	0xbe1eb627	-0.15499173
119	0x3d0b147b	0.03395508
120	0x3cd96fa4	0.026542492
121	0xbd0aa05e	-0.033844344
122	0xbe039cee	-0.12852833
123	0xbd9d11a4	-0.0766938
124	0xbe0f51b6	-0.13996014
125	0x3d48a372	0.048984
126	0xbc363bd5	-0.0111226635
127	0x3c93af39	0.018027889
128	0xbd95c47e	-0.073128685
129	0xbe025ad8	-0.12729967
130	0x3d539de9	0.051664267
131	0xbc95b249	-0.01827349
132	0x3da2a8fc	0.079423875
133	0x3d213063	0.039352786
134	0xbd0746f8	-0.033026665
135	0xbda8aaf1	-0.082357295
136	0xbcf357d2	-0.029704962
137	0xbdb6f452	-0.08933319
138	0xbe3135f6	-0.1730574
139	0x3d2b2067	0.04177895
140	0xbd78fa65	-0.06078567
141	0xbdf275c7	-0.118388705
142	0xbd83c042	-0.06433155
143	0xbe0e7bb2	-0.13914374
144	0xbe237566	-0.15962753
145	0x3c93d970	0.018048018
146	0xbe1564d6	-0.14589247
147	0xbe127f4e	-0.14306375
148	0xbd81539e	-0.06314777
149	0xbe03da05	-0.12876137
150	0xbded9108	-0.11599928
151	0xbc4d139f	-0.012516885
152	0xbdc4acb1	-0.09603251
153	0xbdb95647	-0.09049659
154	0xbd0221c9	-0.0317705
155	0xbe113b9c	-0.14182895
156	0x3cd76fdd	0.026298458
157	0xbe037900	-0.12839127
158	0x3d5b1110	0.05348307
159	0x3c3843d7	0.011246643
160	0xbd0f0e5e	-0.03492581
161	0xbd06e1f3	-0.032930326
162	0xbd24f671	-0.040274087
163	0x3d235a9f	0.039881345
164	0xbdf095e6	-0.11747341
165	0xbde9b295	-0.11411015
166	0xbe0dd999	-0.13852538
167	0xbda1affb	-0.07894894
168	0x3d58ab5c	0.052897796
169	0xbd8874cb	-0.066629015
170	0xbdfba2b2	-0.12286891
171	0x3d975114	0.07388511
172	0xbe2196fb	-0.1578025
173	0x3d54bcf1	0.051938
174	0x3d93536b	0.07193645
175	0x3d05208e	0.03250175
176	0x3ce62fa0	0.028098881
177	0xbd90a8f9	-0.07063479
178	0x3c94655b	0.018114736
179	0x3ddfe582	0.10932447
180	0xbca048d6	-0.01956598
181	0xbdd7b4b7	-0.105325155
182	0xbdf4bd42	-0.119501606
183	0x3d0693ed	0.032855917
184	0xbd1382b4	-0.03601332
185	0xbdef2845	-0.11677603
186	0x3db2aba4	0.08724144
187	0x3bf9d679	0.007624444
188	0xbd67afdc	-0.056564197
189	0x3cedf653	0.02904812
190	0xbdd63764	-0.10459784
191	0x3d87448d	0.06604872
192	0xbd01e581	-0.031713013
193	0x3d83dd1e	0.06438659
194	0x3d7e56bb	0.06209443
195	0xbd865331	-0.06558836
196	0x3e145d60	0.14488745
197	0xbcdee747	-0.027209891
198	0xbdafa655	-0.08576647
199	0x3d883a52	0.06651749
200	0x3db2d88d	0.0873271
201	0x3da73c29	0.081657715
202	0xbd1292f4	-0.035784677
203	0xbe009a21	-0.12558796
204	0xbc983dd0	-0.018584162
205	0x3c14f6c3	0.009092036
206	0xbe0c72be	-0.13715646
207	0xbd899dc4	-0.067195445
208	0x3d93f14a	0.072237566
209	0x3d973677	0.07383435
210	0xbd38f44c	-0.045154855
211	0xbd0a2bc4	-0.033733144
212	0xbdd66eb0	-0.10470331
213	0xbd4e7a07	-0.050409343
214	0x3cd0165d	0.025401289
215	0x3ddee816	0.10884111
216	0x3db0cf5f	0.08633303
217	0xba380865	-0.0007020294
218	0xbbd09fa0	-0.006366685
219	0x3d4b95d8	0.04970345
220	0xbd85f533	-0.06540909
221	0x3d2a028f	0.041506346
222	0xbc9a574b	-0.018840453
223	0xbd83a8de	-0.06428693
224	0x3db02a1f	0.08601784
225	0x3d256272	0.040377088
226	0xbde75e25	-0.112972535
227	0xbd8c6cc2	-0.068566814
228	0x3d06a05a	0.032867767
229	0xbe078f1e	-0.13238189
230	0xbe012472	-0.12611559
231	0xbdc92f04	-0.09823421
232	0x3d51744b	0.051136296
233	0x3d5bb50f	0.053639468
234	0xbe17b7c0	-0.14816189
235	0x3d214b96	0.039378725
236	0xbc4937a3	-0.012281331
237	0xbc4a7b8e	-0.012358559
238	0xbcf872d1	-0.030328186
239	0xbd08ad38	-0.03336832
240	0xbe1308e2	-0.14358857
241	0x3c17d355	0.009266694
242	0x3d0fee8f	0.035139617
243	0x3da4524a	0.08023508
244	0xbe0276de	-0.12740657
245	0x3d3dba57	0.046320286
246	0x3d781978	0.060571164
247	0xbdfc15f6	-0.12308876
248	0xbe080c46	-0.13285932
249	0xbde5a3bb	-0.1121287
250	0xbd887013	-0.066620015
251	0xbdce0f00	-0.10061455
252	0xbdd7bf54	-0.1053454
253	0xbba6d2c2	-0.0050910423
254	0xbc9e4f29	-0.019324856
255	0x3da7ed5b	0.08199569

model.lstm1.weight_hh_l0 f4 [128, 32]
0	0xbe0640c4	-0.13110644
1	0xbde3d909	-0.111253805
2	0x3d9258a0	0.0714581
3	0x3dfe911e	0.12430023
4	0x3d6892e1	0.0567807
5	0x3d8ce35d	0.068793036
6	0xbdb5955c	-0.08866379
7	0xbda07550	-0.078348756
8	0xbe4e14d7	-0.20125137
9	0xbe10096e	-0.14066097
10	0xbe03af26	-0.12859783
11	0x3dfc4fe4	0.123199254
12	0xbd365962	-0.044518836
13	0xbe3e6a92	-0.18595341
14	0xbd5a338b	-0.05327181
15	0x3e004e04	0.1252976
16	0xbd83caeb	-0.06435188
17	0x3da92b04	0.08260158
18	0xbd3ffffc	-0.046874985
19	0x3dad485f	0.08461069
20	0x3e21e605	0.15810402
21	0xbd587d38	-0.052853793
22	0xbe17d46b	-0.14827125
23	0x3e0ea69a	0.13930741
24	0x3e283ea2	0.16430143
25	0x3e586716	0.21133074
26	0xbd9cc902	-0.07655527
27	0xbd982320	-0.074285746
28	0xbe5111b2	-0.20416906
29	0x3e0cb4e1	0.13740875
30	0x3d8b6361	0.068060644
31	0xbe458395	-0.19288476
32	0x3da5d4af	0.08097207
33	0xbe73bc34	-0.23802263
34	0xbe4856c7	-0.19564353
35	0xbdac8b7a	-0.084250405
36	0x3e95f06a	0.29284984
37	0x3dc60d5b	0.09670516
38	0x3ddd0df4	0.10793677
39	0x3d87192b	0.06596597
40	0xbdde53f8	-0.108558595
41	0x3d061815	0.03273781
42	0xbd87764a	-0.06614359
43	0x3d7f4a1e	0.062326543
44	0xbd80d2ab	-0.06290182
45	0x3dad463f	0.08460664
46	0xbd7afaba	-0.061274268
47	0x3e2d2f65	0.16912611
48	0xbca29e1d	-0.019850785
49	0x3d678186	0.056520008
50	0x3d75618d	0.059907485
51	0x3ca68d6e	0.02033111
52	0xbe25c8e0	-0.16189909
53	0xbe303aa9	-0.17209877
54	0x3c6eefba	0.014583522
55	0x3e6a1ce9	0.22862591
56	0x3e57ff65	0.21093519
57	0xbdc07a9d	-0.093983866
58	0xbc8b7029	-0.017021256
59	0x3e496ca9	0.19670357
60	0x3d0711e7	0.032976057
61	0x3d5a33a2	0.053271897
62	0xbdf98c57	-0.12184971
63	0xbdf56ea3	-0.11983993
64	0xbdb77911	-0.089586385
65	0x3e077f33	0.13232116
66	0xbd9296a6	-0.0715764
67	0xbda5a6aa	-0.08088429
68	0xbad30174	-0.0016098456
69	0x3e15724e	0.14594385
70	0x3d914262	0.0709274
71	0xbc7e8a20	-0.015535861
72	0x3c98b8bf	0.018642781
73	0xbd815d7e	-0.0631666
74	0x3dfe989e	0.12431453
75	0x3de0a3cb	0.10968741
76	0xbd85ffcc	-0.0654293
77	0x3e1dab92	0.1539748
78	0x3dca76e5	0.098859586
79	0x3cc44a5b	0.023961237
80	0x3df48b2a	0.11940606
81	0x3db1ad5a	0.08675642
82	0x3e127cde	0.14305446
83	0x3d83b4ed	0.06430993
84	0xbde4e3c5	-0.11176256
85	0x3c185346	0.009297198
86	0xbe0aff48	-0.13573945
87	0x3c2da6cd	0.01059885
88	0x3d189f8d	0.037261534
89	0xbe3c63cb	-0.18397443
90	0xbb561eb3	-0.0032672107
91	0xbca4decc	-0.02012577
92	0x3ca5c6cf	0.0202364
93	0xbcbe071a	-0.023196746
94	0xbe17e823	-0.14834647
95	0xbd0d8646	-0.03455188
96	0xbd99e8a8	-0.07515079
97	0xbda6c1c3	-0.08142426
98	0xbdfb0ab8	-0.12257904
99	0xbe1ab93e	-0.15109727
100	0xbdb3641e	-0.0875933
101	0x3e2c8b57	0.16850029
102	0xbe240bc8	-0.16020119
103	0xbdf74c13	-0.12075057
104	0xbdccbbbb	-0.09996744
105	0x3ded207f	0.11578464
106	0xbd59d0c2	-0.053177603
107	0x3e1c1521	0.15242435
108	0x3e1526d7	0.14565597
109	0x3e23d5a7	0.1599947
110	0x3d254a13	0.040353846
111	0xbd967a69	-0.07347567
112	0x3e0dd214	0.1384967
113	0x3dcc2c13	0.09969344
114	0xbd989f22	-0.07452227
115	0xbcacdcd5	-0.021101395
116	0xbd93a128	-0.072084725
117	0xbe076ef0	-0.13225913
118	0xbcc814b7	-0.02442394
119	0xbd73423b	-0.059389334
120	0x3c962892	0.018329892
121	0x3d1a1772	0.037620015
122	0xbe02b548	-0.12764466
123	0xbced8ce6	-0.02899785
124	0x3e309fbd	0.17248435
125	0xbdbf0e13	-0.09328856
126	0x3d094890	0.033516467
127	0x3d699fe8	0.057037264
128	0xbe45b065	-0.1930557
129	0xbb43e4eb	-0.0029891084
130	0x3e204aec	0.1565358
131	0xbd83ffea	-0.06445296
132	0xbdc3b550	-0.09556067
133	0xbdda12c7	-0.10648113
134	0x3df04ca3	0.11733367
135	0xbd83e381	-0.06439877
136	0x3d9d5071	0.076813586
137	0xbe3ceee3	-0.18450503
138	0xbe5eb298	-0.21747816
139	0xbe022816	-0.12710604
140	0xbe1fbbcf	-0.15598987
141	0xbdb332c0	-0.08749914
142	0x3e2fc9c3	0.1716681
143	0x3d3f1e83	0.046659958
144	0x3d22d317	0.039752092
145	0x3bb8ccde	0.0056396564
146	0xbc8c9dda	-0.017165113
147	0xbe105895	-0.14096291
148	0x3da1d960	0.07902789
149	0xbe3c0ab6	-0.18363461
150	0xbd0148b4	-0.031563476
151	0x3e145f69	0.14489521
152	0x3cf4cc07	0.029882444
153	0x3db3dde7	0.08782559
154	0xbe06c690	-0.13161683
155	0xbbc14885	-0.0058985376
156	0x3e55fdf3	0.20897655
157	0xbd599ae4	-0.05312623
158	0x3d2dd527	0.042439606
159	0x3cc3706d	0.02385732
160	0x3e185ccf	0.14879154
161	0xbd2254c1	-0.03963161
162	0x3df5b638	0.11997646
163	0x3e29a2e0	0.16566038
164	0xbc4aad05	-0.012370353
165	0x3e1b7b4a	0.1518375
166	0xbcc8992b	-0.024487099
167	0x3dc3226b	0.09528049
168	0xbdbcd3ff	-0.092201225
169	0x3e2bfa81	0.16794778
170	0x3c75345f	0.0149660995
171	0xbce5754c	-0.028010033
172	0x3c6a7751	0.014310674
173	0xbd98ec0a	-0.07466896
174	0xbe2b5d22	-0.16734746
175	0x3cecc04a	0.028900284
176	0x3d944b18	0.072408855
177	0x3e054ee6	0.13018379
178	0xbe703d72	-0.2346094
179	0xbe05a458	-0.13050973
180	0xbdb28770	-0.08717239
181	0xbe00228d	-0.1251318
182	0xbddc95f2	-0.10770787
183	0xbd4e67d8	-0.050392002
184	0x3e6aa805	0.22915657
185	0x3d505ecb	0.05087165
186	0x3b727d23	0.0037000857
187	0xbe03ae7e	-0.12859532
188	0xbe2e5978	-0.17026317
189	0xbe37f39f	-0.17964028
190	0xbe30ba20	-0.17258501
191	0xbdf8357e	-0.12119578
192	0x3d79b179	0.060960267
193	0x3e06dad7	0.13169418
194	0x3dbf4e3d	0.09341095
195	0x3d64816d	0.055787493
196	0x3d6b5a23	0.057459008
197	0x3d8b929f	0.06815075
198	0x3d586d1b	0.052838426
199	0x3c9d43d5	0.019197384
200	0x3b256545	0.0025237363
201	0xbd81254c	-0.06305942
202	0xbd10aa10	-0.035318434
203	0x3d057283	0.03257991
204	0xba1267c1	-0.00055849185
205	0xbdabb4e0	-0.083841085
206	0x3e40050f	0.1875193
207	0x3da88734	0.08228913
208	0x3dbe9d6e	0.09307371
209	0xbdaf428a	-0.08557613
210	0xbe487bc4	-0.19578463
211	0x3df87c65	0.121331014
212	0x3d896cf8	0.06710237
213	0x3dacb6e3	0.084333204
214	0xbdb05908	-0.08610731
215	0xbd3572dc	-0.04429899
216	0xbe3d81d2	-0.18506554
217	0xbd9b2eb8	-0.0757727
218	0xbe074900	-0.13211441
219	0xbe4ccbae	-0.19999573
220	0x3e323449	0.17402758
221	0x3d76df12	0.06027133
222	0xbbf36559	-0.007427853
223	0xbcd35fcd	-0.025802517
224	0xbd87d6c9	-0.06632764
225	0xbdbda763	-0.09260442
226	0xbd9ff874	-0.078110605
227	0x3bc6bfbe	0.006065338
228	0xbd542bba	-0.051799513
229	0xbe305f7c	-0.17223924
230	0x3e19b407	0.15010081
231	0x3db1da2b	0.0868419
232	0x3d946a54	0.07246843
233	0x3bdd8638	0.006760385
234	0xbd81f094	-0.06344715
235	0x3e210cb3	0.157275
236	0x3e808895	0.25104204
237	0xbe24980e	-0.1607363
238	0x3e11210f	0.14172767
239	0xbe09ed2e	-0.13469383
240	0xbd928ac1	-0.071553715
241	0xbd9f0f33	-0.07766571
242	0xbe7332b6	-0.23749813
243	0xbe7993bc	-0.24372762
244	0x3d996468	0.07489854
245	0xbd4e70cc	-0.05040054
246	0x3e289f3c	0.16466993
247	0xbe29c3af	-0.16578554
248	0xbc2945c5	-0.010331576
249	0x3dfd3393	0.123633526
250	0x3e2a6db3	0.1664341
251	0xbe084d0e	-0.13310644
252	0xbe40f4d7	-0.18843399
253	0x3dba7859	0.09104986
254	0xbe751fe2	-0.23937944
255	0xbe1181de	-0.14209697

model.lstm1.bias_ih_l0 f4 [128]
0	0x3c821a4d	0.015881682
1	0x3c9d8182	0.019226793
2	0xbd95e863	-0.07319715
3	0xbd0c98e9	-0.034325514
4	0x3b316274	0.002706674
5	0x3cada7f1	0.021198245
6	0xbceb4743	-0.028720504
7	0xbd1724b8	-0.036900252
8	0xbd0abcda	-0.03387151
9	0xbd3a0b25	-0.045420785
10	0xbd921a09	-0.07133872
11	0xbd975eeb	-0.07391151
12	0x3c9f9073	0.019478058
13	0xbcbb1797	-0.022838397
14	0xbc9a6222	-0.018845621
15	0x3c95f81d	0.018306786
16	0x3c205e91	0.009788171
17	0xbd1cd803	-0.038291942
18	0x3c0d8c23	0.008639368
19	0xbc8a49a5	-0.01688082
20	0xbddccbaf	-0.10781037
21	0xbca5d69f	-0.02024394
22	0xbd777cdf	-0.06042182
23	0xbc794825	-0.0152149545
24	0xbd24d85a	-0.04024539
25	0xbd91e3d8	-0.07123536
26	0xbd5f7614	-0.054555967
27	0x3cce6b20	0.025197566
28	0xbc9c8e45	-0.019110808
29	0x3d1d558c	0.038411662
30	0xbd146cfd	-0.03623675
31	0xbcb6fd80	-0.022337675
32	0xbcb71cea	-0.022352654
33	0x3c47728b	0.012173305
34	0xbd9f86d2	-0.07789387
35	0xbd1b0f88	-0.03785661
36	0xbc8a1bf7	-0.016859038
37	0x3b380579	0.0028079434
38	0xbc97010e	-0.01843312
39	0xbd143e73	-0.03619237
40	0xbd811f0a	-0.06304748
41	0xbd13210e	-0.035920195
42	0x3d91b368	0.07114297
43	0xbd935ffa	-0.071960405
44	0xbd1f39ea	-0.03887359
45	0xbd0eb01c	-0.03483592
46	0xbd85b672	-0.06528939
47	0xbd18a35a	-0.03726516
48	0xbbfb350e	-0.0076662367
49	0xbd085d9d	-0.0332924
50	0xbd572f25	-0.052535195
51	0xbd7ae8e7	-0.06125727
52	0xbd711261	-0.058855418
53	0xbd2cc193	-0.042176794
54	0x3bc99fc3	0.0061530783
55	0x3c9f856a	0.019472796
56	0xbd9ea706	-0.07746701
57	0xbd660f5c	-0.05616699
58	0xbd9d8e13	-0.07693114
59	0xbcf34745	-0.02969707
60	0x3cf295f1	0.029612513
61	0xbce52cc7	-0.027975453
62	0xbd315619	-0.043295
63	0xbd1cc3f4	-0.038272813
64	0x3cf59beb	0.029981574
65	0xbcbef9b8	-0.023312435
66	0x3bd00a71	0.006348901
67	0x3caa4b64	0.020787902
68	0x3d1dc169	0.03851453
69	0x3d19fec3	0.037596475
70	0xbc69755e	-0.014249174
71	0xbbb26efd	-0.0054453597
72	0x3b84d4c2	0.004053683
73	0xbc4673f0	-0.012112603
74	0x3b8c66c6	0.0042847125
75	0x3c5952d1	0.013264374
76	0xbd2b7972	-0.041863866
77	0x3d06144a	0.032734193
78	0xbc19eeef	-0.009395345
79	0x3cff91ee	0.031197514
80	0xbd342793	-0.043983053
81	0x3cb87990	0.022518903
82	0x3cb4e170	0.022080153
83	0x3c652074	0.013984788
84	0xbbe14fac	-0.0068759527
85	0x3cd94dbc	0.026526324
86	0xbc3a3206	-0.011364466
87	0x3cfda34e	0.030961659
88	0xbc526f76	-0.012843957
89	0xb8db17b6	-0.0001044715
90	0xbc7df731	-0.01550083
91	0x3d2bd1dd	0.041948188
92	0x3bd84a4a	0.006600653
93	0x3a1d3a18	0.00059977314
94	0x3c5b2af0	0.013376936
95	0x3c97fe6b	0.018553933
96	0x39846ff5	0.00025260416
97	0x3ce3269e	0.027728375
98	0xbda13e23	-0.0787318
99	0xbd2007b9	-0.039069865
100	0xbd89ee3a	-0.06734891
101	0x3a81f981	0.0009916277
102	0xbcf4e301	-0.0298934
103	0xbdb59ac3	-0.08867409
104	0xbd91380d	-0.07090769
105	0xbd67fe4e	-0.05663901
106	0x3d995174	0.07486239
107	0xbd9ac818	-0.07557696
108	0xbd1c20fd	-0.038117398
109	0xbd22653b	-0.039647322
110	0xbd7961a8	-0.060884148
111	0xbce5b006	-0.028038036
112	0xbd2bcf8b	-0.041945975
113	0xbd0bc36a	-0.03412191
114	0xbd3df9c0	-0.04638076
115	0xbdb2c5ea	-0.08729155
116	0xbde118e8	-0.109910786
117	0xbd4f8b18	-0.05066976
118	0xbd558e39	-0.052137587
119	0xbd1e0229	-0.03857628
120	0xbd929b44	-0.07158521
121	0xbd9719d2	-0.07377972
122	0xbd59c779	-0.053168748
123	0xbbd813a3	-0.0065941378
124	0xbd05449e	-0.03253614
125	0x3b200728	0.0024418328
126	0xbd1a37f5	-0.03765102
127	0xbd282e35	-0.04105969

model.lstm1.bias_hh_l0 f4 [128]
0	0x3c821a4d	0.015881682
1	0x3c9d8182	0.019226793
2	0xbd95e863	-0.07319715
3	0xbd0c98e9	-0.034325514
4	0x3b316274	0.002706674
5	0x3cada7f1	0.021198245
6	0xbceb4743	-0.028720504
7	0xbd1724b8	-0.036900252
8	0xbd0abcda	-0.03387151
9	0xbd3a0b25	-0.045420785
10	0xbd921a09	-0.07133872
11	0xbd975eeb	-0.07391151
12	0x3c9f9073	0.019478058
13	0xbcbb1797	-0.022838397
14	0xbc9a6222	-0.018845621
15	0x3c95f81d	0.018306786
16	0x3c205e91	0.009788171
17	0xbd1cd803	-0.038291942
18	0x3c0d8c23	0.008639368
19	0xbc8a49a5	-0.01688082
20	0xbddccbaf	-0.10781037
21	0xbca5d69f	-0.02024394
22	0xbd777cdf	-0.06042182
23	0xbc794825	-0.0152149545
24	0xbd24d85a	-0.04024539
25	0xbd91e3d8	-0.07123536
26	0xbd5f7614	-0.054555967
27	0x3cce6b20	0.025197566
28	0xbc9c8e45	-0.019110808
29	0x3d1d558c	0.038411662
30	0xbd146cfd	-0.03623675
31	0xbcb6fd80	-0.022337675
32	0xbcb71cea	-0.022352654
33	0x3c47728b	0.012173305
34	0xbd9f86d2	-0.07789387
35	0xbd1b0f88	-0.03785661
36	0xbc8a1bf7	-0.016859038
37	0x3b380579	0.0028079434
38	0xbc97010e	-0.01843312
39	0xbd143e73	-0.03619237
40	0xbd811f0a	-0.06304748
41	0xbd13210e	-0.035920195
42	0x3d91b368	0.07114297
43	0xbd935ffa	-0.071960405
44	0xbd1f39ea	-0.03887359
45	0xbd0eb01c	-0.03483592
46	0xbd85b672	-0.06528939
47	0xbd18a35a	-0.03726516
48	0xbbfb350e	-0.0076662367
49	0xbd085d9d	-0.0332924
50	0xbd572f25	-0.052535195
51	0xbd7ae8e7	-0.06125727
52	0xbd711261	-0.058855418
53	0xbd2cc193	-0.042176794
54	0x3bc99fc3	0.0061530783
55	0x3c9f856a	0.019472796
56	0xbd9ea706	-0.07746701
57	0xbd660f5c	-0.05616699
58	0xbd9d8e13	-0.07693114
59	0xbcf34745	-0.02969707
60	0x3cf295f1	0.029612513
61	0xbce52cc7	-0.027975453
62	0xbd315619	-0.043295
63	0xbd1cc3f4	-0.038272813
64	0x3cf59beb	0.029981574
65	0xbcbef9b8	-0.023312435
66	0x3bd00a71	0.006348901
67	0x3caa4b64	0.020787902
68	0x3d1dc169	0.03851453
69	0x3d19fec3	0.037596475
70	0xbc69755e	-0.014249174
71	0xbbb26efd	-0.0054453597
72	0x3b84d4c2	0.004053683
73	0xbc4673f0	-0.012112603
74	0x3b8c66c6	0.0042847125
75	0x3c5952d1	0.013264374
76	0xbd2b7972	-0.041863866
77	0x3d06144a	0.032734193
78	0xbc19eeef	-0.009395345
79	0x3cff91ee	0.031197514
80	0xbd342793	-0.043983053
81	0x3cb87990	0.022518903
82	0x3cb4e170	0.022080153
83	0x3c652074	0.013984788
84	0xbbe14fac	-0.0068759527
85	0x3cd94dbc	0.026526324
86	0xbc3a3206	-0.011364466
87	0x3cfda34e	0.030961659
88	0xbc526f76	-0.012843957
89	0xb8db17b6	-0.0001044715
90	0xbc7df731	-0.01550083
91	0x3d2bd1dd	0.041948188
92	0x3bd84a4a	0.006600653
93	0x3a1d3a18	0.00059977314
94	0x3c5b2af0	0.013376936
95	0x3c97fe6b	0.018553933
96	0x39846ff5	0.00025260416
97	0x3ce3269e	0.027728375
98	0xbda13e23	-0.0787318
99	0xbd2007b9	-0.039069865
100	0xbd89ee3a	-0.06734891
101	0x3a81f981	0.0009916277
102	0xbcf4e301	-0.0298934
103	0xbdb59ac3	-0.08867409
104	0xbd91380d	-0.07090769
105	0xbd67fe4e	-0.05663901
106	0x3d995174	0.07486239
107	0xbd9ac818	-0.07557696
108	0xbd1c20fd	-0.038117398
109	0xbd22653b	-0.039647322
110	0xbd7961a8	-0.060884148
111	0xbce5b006	-0.028038036
112	0xbd2bcf8b	-0.041945975
113	0xbd0bc36a	-0.03412191
114	0xbd3df9c0	-0.04638076
115	0xbdb2c5ea	-0.08729155
116	0xbde118e8	-0.109910786
117	0xbd4f8b18	-0.05066976
118	0xbd558e39	-0.052137587
119	0xbd1e0229	-0.03857628
120	0xbd929b44	-0.07158521
121	0xbd9719d2	-0.07377972
122	0xbd59c779	-0.053168748
123	0xbbd813a3	-0.0065941378
124	0xbd05449e	-0.03253614
125	0x3b200728	0.0024418328
126	0xbd1a37f5	-0.03765102
127	0xbd282e35	-0.04105969

model.lstm2.weight_ih_l0 f4 [512, 32]
0	0x3d6da5b7	0.058019366
1	0x3cf65bc5	0.030073056
2	0xbce5e1ad	-0.028061712
3	0xbd907048	-0.07052666
4	0x3e27f1a7	0.16400777
5	0x3ccda00b	0.025100728
6	0x3be1796c	0.0068809297
7	0x3c197356	0.009365877
8	0x3d102f68	0.03520146
9	0x3d2ad66f	0.041708406
10	0xbe0f6373	-0.1400278
11	0x3d5c584a	0.053795137
12	0x3d248085	0.04016163
13	0x3de00bf5	0.109397806
14	0x3bec6880	0.007214606
15	0x3b7ea1fc	0.0038853874
16	0xbdb81604	-0.08988574
17	0xbc0bb28a	-0.008526454
18	0x3dda640b	0.10663613
19	0xbc0c3e88	-0.0085598305
20	0x3d64b098	0.055832475
21	0xbb0439c6	-0.0020176037
22	0xbcf82f32	-0.030295942
23	0x3d98bb10	0.07457554
24	0xbd828342	-0.06372692
25	0xbd475807	-0.048667934
26	0x3da2cc83	0.07949164
27	0x3df93f91	0.121703275
28	0xbd0cd768	-0.034385115
29	0xbd13563f	-0.035970923
30	0x3c867e2e	0.016417589
31	0xbe14a74a	-0.1451694
32	0xbcec6bd0	-0.028860003
33	0x3d188c3b	0.03724311
34	0xbaec0b69	-0.0018008772
35	0x3c741df9	0.014899724
36	0x3cc06e1e	0.023490008
37	0xbd72e913	-0.05930431
38	0x3ce6620a	0.02812292
39	0x3ca3b8ce	0.019985583
40	0x3ccfc939	0.025364505
41	0x3c43498d	0.011919391
42	0x3d1065fd	0.035253514
43	0xbd0cbc72	-0.034359403
44	0x3c9579b0	0.018246502
45	0xbdcad8f3	-0.09904661
46	0x3de5c02f	0.11218297
47	0x3d632638	0.05545637
48	0x3d38c652	0.045111008
49	0xba129386	-0.0005591441
50	0xbdeedfe5	-0.11663798
51	0xbe0ab1a6	-0.1354433
52	0xbbbabf9f	-0.0056991125
53	0x3da5b25e	0.080906615
54	0x3cafdde6	0.021468114
55	0xbcc179a4	-0.023617573
56	0xbd570d29	-0.052502785
57	0x3dbbe8e4	0.0917528
58	0x3a2277df	0.0006197672
59	0xbc667b8f	-0.014067545
60	0xbd9a904a	-0.07547052
61	0xbd3a87e1	-0.04553974
62	0x3d4ec6a1	0.050482396
63	0xbdadf6e7	-0.084943585
64	0xbdf6188e	-0.12016402
65	0x3cb16672	0.021655295
66	0xbce8b434	-0.02840624
67	0x3d4a90ad	0.04945438
68	0xbceacbc2	-0.028661612
69	0xbda11e9a	-0.07867165
70	0xbce236a0	-0.027613938
71	0xbcc281db	-0.02374356
72	0xbd89e659	-0.067333885
73	0xbaed0088	-0.0018081823
74	0x3c8a5433	0.016885852
75	0x3d953770	0.072859645
76	0x3dcb61ec	0.099307865
77	0xbdfece58	-0.12441701
78	0x3d05073d	0.032477606
79	0x3d9d6b6f	0.07686507
80	0xbc324b97	-0.01088228
81	0x3b17bdb5	0.0023153846
82	0x3d29f8df	0.041497108
83	0x3c587177	0.013210646
84	0xbdf57768	-0.119856656
85	0xbd1903ad	-0.03735702
86	0xbd4be9fe	-0.0497837
87	0xbca21ce4	-0.019789167
88	0xbd840fe2	-0.06448342
89	0x3d22999b	0.03969727
90	0x3d52f461	0.05150259
91	0x3c89532f	0.016763298
92	0xbc858190	-0.016297132
93	0x3adfd853	0.001707802
94	0xbae21eaf	-0.0017251576
95	0xbda2aa5e	-0.07942651
96	0xbdf5fff2	-0.12011708
97	0xbd42c787	-0.047553565
98	0xbd530a93	-0.051523756
99	0x3d3b2f37	0.045699324
100	0x3d757791	0.05992848
101	0x3d75f751	0.060050312
102	0xbcb1f920	-0.021725237
103	0x3dac4833	0.084122084
104	0x3d78b826	0.060722493
105	0xbd16ebdc	-0.036846027
106	0x3d310f29	0.04322735
107	0xbd68a7f4	-0.056800798
108	0xbde73800	-0.11289978
109	0x3de694e2	0.11258866
110	0x3d3ce762	0.0461191
111	0x3c3c8448	0.011506148
112	0x3d08d0fd	0.03340243
113	0xbc7ac40d	-0.015305531
114	0xbba29946	-0.0049621193
115	0x3ddc4932	0.107561484
116	0xbd097e88	-0.033567935
117	0xbdb5787c	-0.08860871
118	0xbd9e0415	-0.07715622
119	0x3defc1f7	0.11706918
120	0xbb68ed14	-0.00355417
121	0xbcc6bac9	-0.024258988
122	0xbc855da4	-0.016280003
123	0xbb3f2766	-0.002916777
124	0x3d6ac1dc	0.057313785
125	0x3ceb0d16	0.028692763
126	0x3d5f416a	0.054505743
127	0xbd3af689	-0.04564527
128	0x3c0930b1	0.008373425
129	0xbabfd5ab	-0.0014635822
130	0x3c6e3fea	0.0145416055
131	0xbdc304d1	-0.09522403
132	0x3d8d69ec	0.069049686
133	0xbd8b9daf	-0.06817185
134	0x3ba3a1c4	0.004993649
135	0x3d706d60	0.058698058
136	0xbbcfa055	-0.0063362517
137	0xbb6f68f7	-0.003653107
138	0x3ce14d63	0.027502721
139	0x3dd62ca0	0.1045773
140	0x3d43251b	0.04764281
141	0xbcf6b91e	-0.030117568
142	0xbd86eb89	-0.065878935
143	0xbd29b289	-0.04143003
144	0x3c848dc5	0.016180882
145	0x3c3db4c3	0.0115787415
146	0xbc40a49b	-0.011757995
147	0x3e1de792	0.15420368
148	0x3d473be2	0.048641093
149	0x3bca6c74	0.0061774794
150	0x3be0a8cb	0.006856059
151	0xbddd5a79	-0.10808272
152	0xbd8885eb	-0.06666168
153	0x3c608d9a	0.013705635
154	0x3d66cfd8	0.05635056
155	0xbc9b1026	-0.018928599
156	0xbcf930ac	-0.030418716
157	0xbe158936	-0.14603123
158	0xbd030db7	-0.0319955
159	0xbd43176d	-0.047629762
160	0xbb43117c	-0.002976506
161	0xbd820aa0	-0.06349683
162	0xbc3a0cec	-0.01135562
163	0xbaf124a4	-0.001839776
164	0x3dab4e05	0.083644904
165	0xbd859107	-0.065218024
166	0x3da477f4	0.08030692
167	0x3c88a768	0.016681388
168	0xbd32fe00	-0.043699265
169	0x3942b382	0.00018568154
170	0xbc485d75	-0.012229313
171	0xbd9668fb	-0.07344242
172	0x3cdd8f36	0.027045827
173	0x3dd19acf	0.102346055
174	0xbd975207	-0.07388692
175	0xbcec8165	-0.028870294
176	0xbd027d96	-0.03185805
177	0xbdb5d08a	-0.08877666
178	0x3e1abd9b	0.15111391
179	0xbd2e5693	-0.042563032
180	0x3ce40a2c	0.027836882
181	0x3cdc9adc	0.026929311
182	0xbcf27b8b	-0.029599926
183	0xbd75c6fd	-0.060004223
184	0xbd988f86	-0.0744925
185	0x3d4d3d1c	0.050107107
186	0xbc8f7096	-0.01750974
187	0xbdc7b1f8	-0.09750742
188	0x3d771700	0.06032467
189	0x3d0a543e	0.033771746
190	0x3c8d19f5	0.017224291
191	0x3c102f8b	0.008800398
192	0x3d98b03b	0.07455488
193	0xbca5d5ba	-0.020243514
194	0xbd98ec76	-0.07466976
195	0x3bc34348	0.0059589483
196	0x3e129751	0.14315535
197	0xbc725e51	-0.014792995
198	0x3990feb5	0.00027655592
199	0x3df9c82d	0.121963836
200	0x3da2b4d1	0.07944644
201	0xbcbccfa4	-0.02304823
202	0x3e14ef84	0.14544493
203	0x3c3d7448	0.011563368
204	0xbcdc1a94	-0.026868142
205	0xbe1a6c33	-0.15080337
206	0xbd5fcb4d	-0.054637242
207	0x3d159065	0.03651466
208	0x3d10f9a0	0.03539431
209	0xbc14b3d0	-0.009076074
210	0x3da029ea	0.078204945
211	0x3dad1309	0.08450896
212	0x3dda0895	0.10646168
213	0x3d1017d5	0.035178978
214	0xbb9e2666	-0.004826355
215	0xbccd11cf	-0.025032906
216	0x3d2123c3	0.039340746
217	0xbdb2d722	-0.087324396
218	0x3d74df00	0.059782982
219	0xbcecc04c	-0.028900288
220	0xbd401961	-0.046899203
221	0x3c041141	0.008060754
222	0x3d51e0d7	0.051239815
223	0x3c10bfa8	0.008834757
224	0xbdf23188	-0.118258536
225	0xbd09f288	-0.03367856
226	0x3dacee25	0.0844386
227	0xbe01a690	-0.12661195
228	0xbccbbfc4	-0.024871714
229	0xbd616c65	-0.055035014
230	0x3e157c31	0.14598157
231	0x3d403166	0.04692211
232	0xbce00f15	-0.027350942
233	0x3e432b30	0.19059443
234	0x3dd88bc5	0.10573534
235	0xbd6cb595	-0.057790358
236	0x3d8b8985	0.06813339
237	0xbd6443ac	-0.0557286
238	0x3c25bec7	0.010116286
239	0xbdee2655	-0.11628405
240	0x3d1760f3	0.036957692
241	0xbc8f9c66	-0.017530631
242	0xbda7a535	-0.081858076
243	0xbdb08e66	-0.0862091
244	0x3dee14cb	0.1162506
245	0xbaef7486	-0.001826898
246	0x3e195bf3	0.14976482
247	0xbd3dd7cb	-0.046348374
248	0x3c77c161	0.015121789
249	0x3dbeb244	0.09311345
250	0xbd8e0004	-0.06933597
251	0xbe10a469	-0.14125217
252	0x3b3bd21b	0.0028659168
253	0xbe1866e9	-0.14883007
254	0xbcc0c677	-0.023532135
255	0xbdb6745e	-0.08908914

model.lstm2.weight_hh_l0 f4 [512, 128]
0	0xbb3d3c6f	-0.0028875133
1	0x3dda45b3	0.10657825
2	0xbc2bd425	-0.010487591
3	0xbdd16458	-0.10224217
4	0x3bbe8883	0.0058146133
5	0x3dd4f5f6	0.10398476
6	0xb99423f6	-0.00028255553
7	0xbd4eb156	-0.05046209
8	0x3d2bc59b	0.041936498
9	0x3c745aeb	0.014914255
10	0x3b41944a	0.002953785
11	0xbcac1a11	-0.021008523
12	0x3e108288	0.14112294
13	0x3c8afbb4	0.016965725
14	0x3d3edeb3	0.0465991
15	0x3d238cb6	0.039929114
16	0x3db05249	0.08609445
17	0x3df06a48	0.117390215
18	0x3dbe6f0c	0.09298524
19	0x3dd5d89d	0.10441706
20	0xbac0a355	-0.0014697114
21	0x3d5df21c	0.05418597
22	0x3ce947f5	0.028476695
23	0xbbb26480	-0.0054441094
24	0xbc6e137f	-0.014531015
25	0xbdd05482	-0.101723686
26	0x3b6f2ead	0.0036496327
27	0xbcd5f5e2	-0.026118223
28	0xbd0b5490	-0.034016192
29	0xbd16ca58	-0.036814064
30	0x3ce02e94	0.02736596
31	0x3d246dd4	0.040143803
32	0x3d30910f	0.04310709
33	0x3d21a1bb	0.03946088
34	0x3d9bc4c2	0.07605888
35	0x3dc3d465	0.095619954
36	0xbe09d920	-0.13461733
37	0xbdfb5834	-0.12272683
38	0xbbe873a2	-0.0070938626
39	0x3d887c6a	0.06664355
40	0xbcd7564d	-0.026286269
41	0x3d934cd9	0.07192392
42	0xbc57de55	-0.013175567
43	0xbd6d0f1a	-0.05787573
44	0xbe1eea94	-0.15519172
45	0xba31a6b1	-0.0006776853
46	0xbbce64df	-0.006298646
47	0x3d698c79	0.05701873
48	0x3da4f0d5	0.080537476
49	0x3dae4abf	0.085103504
50	0xbdd53442	-0.10410358
51	0xbd551d1c	-0.052029714
52	0x3d8debca	0.06929739
53	0x3deec444	0.116585284
54	0x3dda7660	0.106671095
55	0xbcdbb305	-0.026818762
56	0xbd5137ee	-0.05107873
57	0xbd9d0a6d	-0.07668004
58	0xbd2316a8	-0.03981653
59	0xbd82df81	-0.06390286
60	0xbc554ffe	-0.01301956
61	0xbe2057dd	-0.15658517
62	0xbce4426d	-0.027863706
63	0x3d7c4262	0.061586745
64	0xbdd9a2c4	-0.10626748
65	0x3c659237	0.014011911
66	0xbbd5fe4c	-0.0065305587
67	0x3c1bfc71	0.009520636
68	0x3dbb839a	0.091559604
69	0xbb88fba2	-0.0041803876
70	0xbc96bbad	-0.018400038
71	0xbd99fcb3	-0.07518902
72	0x3b6cd631	0.003613841
73	0xbe16fda3	-0.14745192
74	0x3c5bbcbd	0.013411698
75	0xbdd3dcd9	-0.10344858
76	0x3d80a2a4	0.06281021
77	0x3da259a8	0.07927257
78	0xbc231cd0	-0.0099556
79	0x3e1d2a4b	0.15348165
80	0x3de07de2	0.1096151
81	0x3d7532d4	0.059862927
82	0xbd6c6c04	-0.0577202
83	0x3bbeea10	0.0058262423
84	0x3e1ccd00	0.15312576
85	0xbd01b5fc	-0.031667694
86	0xbb85c22f	-0.0040819864
87	0x3a993322	0.0011688212
88	0xbd95f9bc	-0.07323024
89	0xbdef7b32	-0.116934195
90	0x3bd8d8ea	0.006617655
91	0xbe0a3239	-0.13495721
92	0x3d9e4098	0.07727164
93	0x3dc813d8	0.0976941
94	0xbda48411	-0.08033002
95	0x3e01983b	0.12655728
96	0x3d5e877b	0.054328423
97	0xbcb01551	-0.02149454
98	0xbcb227b0	-0.02174744
99	0x3e04c27f	0.1296482
100	0x3e0dacde	0.13835475
101	0x3d111748	0.035422593
102	0xbd2f074d	-0.042731572
103	0x3d939e96	0.07207982
104	0x3d3abb68	0.04558888
105	0xbd6d34c8	-0.057911664
106	0x3d4dccea	0.05024425
107	0x3e249ec9	0.16076197
108	0xbe06f5db	-0.13179724
109	0xbdb4ff78	-0.08837789
110	0xbbf6b902	-0.007529379
111	0x3ca8fae0	0.020627439
112	0xbcc8d5e8	-0.024516061
113	0x3c0897fd	0.008337018
114	0x3ccff932	0.02538738
115	0xbe02cc8a	-0.12773338
116	0x3cd973eb	0.026544532
117	0xbbe8cd60	-0.0071045607
118	0x3d2302b8	0.039797515
119	0x3dc95a70	0.09831703
120	0xbde95af8	-0.11394304
121	0x3c96b761	0.018397989
122	0xbe14a5e3	-0.14516406
123	0xbc806841	-0.015674712
124	0xbcee61ae	-0.029099312
125	0xbca2a960	-0.019856155
126	0xbb6cd6e9	-0.0036138839
127	0xbb48b6d0	-0.0030626543
128	0x3d730a05	0.059335727
129	0x3d22601d	0.039642442
130	0x3e001ae2	0.12510255
131	0xbda52cf9	-0.080652185
132	0xbd1f74a2	-0.03892959
133	0x3cd83dc5	0.026396642
134	0x3dcead1e	0.10091613
135	0xbe16083f	-0.14651583
136	0x3d88d91e	0.06682037
137	0xbddcecdb	-0.10787364
138	0x3e1246f9	0.14284886
139	0xbd56fd75	-0.05248781
140	0xbd171224	-0.036882535
141	0x3dd524a6	0.10407381
142	0xbd0f9972	-0.035058446
143	0x3db1a090	0.08673203
144	0xbd389b5a	-0.04507003
145	0x3d349ca7	0.044094708
146	0xbc81cfcc	-0.015846156
147	0xbb2e11bb	-0.002656086
148	0x3d1d069f	0.038336392
149	0xbb712942	-0.0036798273
150	0xbb8182de	-0.003952368
151	0x3dba3c9e	0.09093593
152	0x3b9a5136	0.004709388
153	0xbd8a6ac5	-0.06758646
154	0x3b211406	0.0024578585
155	0x3d143efc	0.03619288
156	0x3cc30245	0.023804793
157	0x3be7d081	0.007074416
158	0xbdfe999c	-0.124316424
159	0x3d6f19d6	0.05837425
160	0xbde30933	-0.11085739
161	0x3c10619e	0.008812336
162	0x3cb8e331	0.02256927
163	0x3dee9583	0.11649611
164	0xbd9b7179	-0.075900026
165	0xbd81170b	-0.06303223
166	0xbd881872	-0.066452876
167	0x3d93015a	0.07177992
168	0x3d1e5e62	0.03866423
169	0xbccf02f6	-0.025269967
170	0xbbda95f1	-0.0066707064
171	0x3c78e92f	0.015192314
172	0x3d021159	0.031754825
173	0x3c20332d	0.009777826
174	0x3d57c27c	0.05267571
175	0x3d482c4b	0.048870366
176	0x3d959657	0.07304066
177	0x3d926493	0.07148089
178	0xbdfb3812	-0.12266554
179	0x3d5cb089	0.053879295
180	0xbd757c55	-0.059933025
181	0x3d34b0f3	0.044114064
182	0x3ce96697	0.028491301
183	0xbda2660f	-0.079296224
184	0x3d18adc6	0.0372751
185	0xbdadb8a8	-0.08482486
186	0xbd736155	-0.059418995
187	0xbc3a0cc2	-0.011355581
188	0xbd97fc2d	-0.074211456
189	0x3d15e6da	0.03659711
190	0xbd4264e6	-0.047459505
191	0xbc844139	-0.016144382
192	0x3c30f1ab	0.010799806
193	0xbab184fb	-0.001354366
194	0xbd898b8b	-0.06716069
195	0x3d5e82d0	0.05432397
196	0x3d5edf76	0.054412328
197	0x3de6f171	0.1127652
198	0x3ce57929	0.028011875
199	0xbd717006	-0.058944725
200	0x3d82ca48	0.06386238
201	0xbcf774bf	-0.030207036
202	0x3cbde176	0.023178797
203	0xbd96fb98	-0.073722064
204	0x3cd678bd	0.02618062
205	0x3c6f5bd7	0.014609299
206	0x3ccda585	0.02510334
207	0xbd4deb73	-0.05027337
208	0xbce4dc96	-0.027937215
209	0xbd3c533c	-0.045977816
210	0xbdb721fc	-0.08942029
211	0x3c4eb0c7	0.012615389
212	0xbd273b25	-0.04082789
213	0xbc35d2fa	-0.011097664
214	0xbc0644cb	-0.008195112
215	0xbdac0793	-0.08399882
216	0x3b7fdb37	0.0039040574
217	0x3d6568ce	0.056008153
218	0x3d5fda59	0.054651592
219	0x3c95eccb	0.018301388
220	0x3d8119b6	0.06303732
221	0x3de75ca1	0.112969644
222	0x3da7f2d7	0.08200615
223	0x3dd02c81	0.101647384
224	0xbd5013c1	-0.05080009
225	0xbdf1fcfe	-0.118158326
226	0xbd22731b	-0.039660554
227	0x3d6e6d88	0.058209926
228	0x3b4cef47	0.003127055
229	0x3d04f9bb	0.032464724
230	0x3cf7d36d	0.030252183
231	0x3bd11f4c	0.0063819047
232	0x3db878cf	0.090074174
233	0xbd1d7d6c	-0.03844969
234	0xbb6c7e5c	-0.0036086058
235	0xbca6692b	-0.02031382
236	0x3ca5a55e	0.020220455
237	0x3ddfb303	0.10922816
238	0xbd9c24cd	-0.07624207
239	0xbbb80cac	-0.005616745
240	0xbcc21018	-0.023689315
241	0x3cc1902f	0.023628322
242	0xbd2eca46	-0.04267337
243	0xbd8c5357	-0.06851833
244	0xbd5a53f8	-0.053302735
245	0x3d9c1743	0.07621624
246	0xbc7a631b	-0.015282418
247	0xbdb4ca0b	-0.08827599
248	0xbdbe7c34	-0.093010336
249	0xbd56cd01	-0.0524416
250	0x3d2d4d84	0.042310253
251	0xbd622d9d	-0.05521928
252	0xbddf9753	-0.10917535
253	0x3d564d4e	0.052319817
254	0xbc53a4b2	-0.012917684
255	0x3cb436cb	0.021998784

model.lstm2.bias_ih_l0 f4 [512]
0	0xbcc1b07b	-0.023643723
1	0x3d29e4bf	0.041477915
2	0xbd8ce5b1	-0.06879748
3	0xbd8f4638	-0.06995815
4	0xbc9e5bb3	-0.019330835
5	0xbdf9fcdd	-0.12206433
6	0xbdeb34cc	-0.114846796
7	0xbc56dd41	-0.0131142745
8	0x3d5aba45	0.053400297
9	0xbc8a3e14	-0.016875304
10	0xbdca5d4f	-0.098810785
11	0xbc58c9dd	-0.013231722
12	0xbddce39b	-0.107856
13	0xbcebfa91	-0.028806003
14	0x3d203522	0.03911317
15	0xbcb89147	-0.022530211
16	0xbcd12047	-0.025528086
17	0x3d067ed5	0.0328358
18	0xbdc77513	-0.09739127
19	0xbd3da552	-0.04630024
20	0xbd38a7e6	-0.045081995
21	0x3ccc4f9d	0.024940306
22	0xbdba732e	-0.09104
23	0xbdb31086	-0.08743386
24	0xbc0c93f1	-0.008580194
25	0xbcf16a65	-0.029469678
26	0xbc9bf0e7	-0.01903577
27	0x3c590cbb	0.013247664
28	0xbdc45bae	-0.09587799
29	0x3c8e7cd3	0.017393505
30	0x3c085795	0.008321662
31	0xbd7b6597	-0.06137618
32	0xbdab6355	-0.083685555
33	0xbdd9ba18	-0.10631198
34	0xbd1cb83d	-0.03826164
35	0xbd3ab7c3	-0.045585405
36	0x3cf41c59	0.029798673
37	0xbdfb29ea	-0.12263854
38	0xbcdfd8df	-0.027325092
39	0xbddf6bf4	-0.10909262
40	0xbd03f701	-0.032217983
41	0xbceb3a95	-0.028714458
42	0xbd58fd96	-0.052976213
43	0xbd10c747	-0.035346296
44	0x3cb90a8a	0.022588033
45	0x3bb73255	0.005590717
46	0xbc589c96	-0.013220927
47	0xbdda3b49	-0.10655839
48	0x3d4cd36e	0.050006323
49	0xbd04cb00	-0.03242016
50	0x3bf16461	0.0073667024
51	0x3ce5b38d	0.028039718
52	0xbde09ca7	-0.10967379
53	0xbd02d0b9	-0.031937335
54	0x3bbc5d5b	0.0057484335
55	0xbd8b41d6	-0.067996666
56	0x3c289daf	0.010291501
57	0x3d1087e0	0.03528583
58	0xbd889127	-0.066683106
59	0xbd900db0	-0.07033861
60	0xbd88b2c9	-0.066747256
61	0x3d8a8465	0.067635335
62	0xbd2d5689	-0.042318854
63	0xbde5b32a	-0.112158135
64	0xbe0983be	-0.13429162
65	0xbce84dfd	-0.0283575
66	0xbd8db2f5	-0.06918899
67	0x3c586ba7	0.01320926
68	0x39cc43e8	0.00038960506
69	0xbda8af4d	-0.08236561
70	0xbdaeb14a	-0.08529909
71	0xbd858260	-0.06519008
72	0xbdae211d	-0.085024096
73	0xbd110a87	-0.03541043
74	0x3bfe3700	0.0077580214
75	0xbc68a330	-0.014199063
76	0xbd4c3573	-0.04985566
77	0xbdb6c7db	-0.08924838
78	0x3d1506e6	0.036383532
79	0xbd463ee4	-0.04839982
80	0xbdb0d172	-0.086336985
81	0xbd65afbb	-0.056075793
82	0xbdc21ff4	-0.09478751
83	0xbd32a122	-0.0436107
84	0xbe0b2f85	-0.13592346
85	0x3cfa4739	0.03055154
86	0xbcd2776c	-0.02569171
87	0xbd384fe1	-0.044998053
88	0xbcb3e4a9	-0.02195962
89	0xbd827b2a	-0.06371148
90	0x3ceea5f6	0.02913187
91	0xbb431f91	-0.0029773454
92	0xbdac16d3	-0.08402791
93	0xbd449b3b	-0.0479996
94	0xbd891fda	-0.06695528
95	0xbd66f5a0	-0.05638659
96	0xbdcb089e	-0.09913753
97	0xbd7ea850	-0.062172234
98	0xbd521701	-0.05129147
99	0xbdd2d673	-0.10294809
100	0xbcdbf80e	-0.02685168
101	0x3cdf57d4	0.02726356
102	0xbe115e33	-0.1419609
103	0xbe119777	-0.14217936
104	0x3d21a25a	0.03946147
105	0x3d4d83b1	0.05017442
106	0xbe35a16d	-0.1773736
107	0xbd484ccc	-0.048901364
108	0x3ab51a27	0.0013816998
109	0xbe082d24	-0.1329847
110	0xbd7b024e	-0.061281495
111	0xbd6a64b2	-0.057224937
112	0xbd4fc1e1	-0.050722007
113	0xbdf115ca	-0.11771734
114	0xbc97f546	-0.018549573
115	0x3c9dc499	0.019258784
116	0xbdf59a52	-0.11992325
117	0x3bb5af3f	0.0055445726
118	0xbd9c8ee6	-0.07644443
119	0xbcdeb35a	-0.02718513
120	0xbd9da508	-0.07697493
121	0x3ca3b551	0.01998392
122	0xbded9080	-0.11599827
123	0xbd9c63ca	-0.07636221
124	0xbaaffe02	-0.0013427141
125	0x3d54c839	0.05194876
126	0xbd09f2b6	-0.033678733
127	0x3cf1055b	0.029421499
128	0xbdc9859c	-0.09839937
129	0x3d30c729	0.043158684
130	0xbbe51db3	-0.006992066
131	0xbdf409e3	-0.11915948
132	0xbd3fb6ca	-0.04680518
133	0xbd40c0c1	-0.047058824
134	0xbdb7b830	-0.08970678
135	0xbdd9e31f	-0.10639023
136	0xbcc2bffa	-0.023773182
137	0xbdb337ac	-0.08750853
138	0xbde937f3	-0.113876246
139	0xbdfefca9	-0.12450535
140	0xbcee0bea	-0.029058415
141	0x3cd02b06	0.02541114
142	0xbbba24f1	-0.0056806733
143	0xbdf1c29e	-0.118046984
144	0xbc7185fc	-0.014741417
145	0xbd067d82	-0.032834537
146	0xbc6c9635	-0.014440109
147	0xbd064c71	-0.032787744
148	0xbd8c8191	-0.0686065
149	0x3d3b6672	0.045751996
150	0x3cb973ed	0.022638286
151	0xbdb7f9ff	-0.0898323
152	0xbd75d97e	-0.06002187
153	0xbcc5849d	-0.024111087
154	0xbc8903c1	-0.016725423
155	0xbe1deda7	-0.15422688
156	0xbcff960d	-0.03119948
157	0xbd9d20db	-0.07672282
158	0xbd5952c3	-0.053057443
159	0xbdb1ec62	-0.086876646
160	0xbcfb2296	-0.03065614
161	0xbcf29abe	-0.029614802
162	0xbe1792b5	-0.14802058
163	0xbd834703	-0.06410029
164	0xbc8e5d2b	-0.01737841
165	0xbd3dbc83	-0.046322357
166	0xbbdbdeab	-0.0067098937
167	0xbd9e9337	-0.07742923
168	0xbc8ac925	-0.016941616
169	0xbca8909c	-0.020576768
170	0xbd5a16dd	-0.05324446
171	0xbcd9b907	-0.026577486
172	0xbde58738	-0.112074316
173	0xbd3d1981	-0.0461669
174	0x3cf0aa6d	0.02937814
175	0xbdf59289	-0.1199084
176	0xbd971a88	-0.07378107
177	0xbe099d20	-0.13438845
178	0xbcf867ce	-0.030322935
179	0xbe0a221b	-0.13489573
180	0xbd85abfa	-0.065269426
181	0xbdd7a91b	-0.10530301
182	0xbd47b03e	-0.048752062
183	0xbdd457da	-0.10368319
184	0x3d243e21	0.040098313
185	0xbd284fba	-0.04109166
186	0x3c56bc5a	0.01310643
187	0xbdfe4a68	-0.124165356
188	0xbd5fa0ca	-0.0545967
189	0xbdb81f62	-0.08990361
190	0xbd7f8e35	-0.06239148
191	0xbe0fffa3	-0.14062361
192	0xbdcdc4f6	-0.10047333
193	0xbd9f303e	-0.07772873
194	0x3c9d042c	0.019167028
195	0xbc59183e	-0.013250409
196	0xbd5f238e	-0.054477267
197	0x3c5a2afb	0.013315911
198	0xbc3194d3	-0.010838705
199	0xbe063f2f	-0.1311004
200	0xbd4bcfad	-0.049758602
201	0xbe02b41e	-0.12764022
202	0xbe132805	-0.14370735
203	0x3b3c4569	0.0028727895
204	0xbd57e7c6	-0.05271127
205	0xbd689098	-0.05677852
206	0x3cf086df	0.029361187
207	0x3d4eafec	0.05046074
208	0xbd15b40c	-0.03654866
209	0x3cd22c13	0.025655782
210	0xbc2ac104	-0.010421995
211	0xbe0942b4	-0.13404351
212	0xbe0cbc4c	-0.13743705
213	0x3cc7d32c	0.024392687
214	0xbe15084b	-0.14553945
215	0xbd82ea60	-0.0639236
216	0xbcd73dfc	-0.026274674
217	0x3c1b3f48	0.009475537
218	0xbdeff0b7	-0.117158346
219	0xbdfa3c2e	-0.122185096
220	0x3c01096b	0.007875781
221	0xbd9ff9bc	-0.07811305
222	0x3b9ae966	0.0047275303
223	0xbd80391a	-0.06260891
224	0xbd8151de	-0.06314443
225	0xbd3926c2	-0.045202978
226	0x3aa2dcf1	0.0012425465
227	0xbe26c845	-0.16287334
228	0x3c404e60	0.011737436
229	0xbd46944b	-0.048481267
230	0xbd435f71	-0.047698442
231	0xbd5847ea	-0.052802958
232	0xbdb7166e	-0.08939825
233	0x3ce75906	0.028240692
234	0xbe0acdae	-0.13555023
235	0x3d056700	0.03256893
236	0xbd917cdd	-0.07103894
237	0xbe19b352	-0.15009812
238	0xbd1ae093	-0.037811827
239	0xbd3bdaa8	-0.045862824
240	0xbcaaa440	-0.020830274
241	0xbe17a203	-0.14807896
242	0xbd9104e3	-0.0708101
243	0xbd83b1a6	-0.06430368
244	0xbd7f3c0f	-0.062313136
245	0xbd99547a	-0.07486816
246	0x3d01ba3b	0.031671744
247	0xbd99c5d5	-0.075084366
248	0xbdcd8052	-0.10034241
249	0xbd095383	-0.03352691
250	0xbd70adac	-0.058759376
251	0xbda74966	-0.081682965
252	0xbdaf3bb7	-0.085563116
253	0xbdec0c2e	-0.115257606
254	0xbda608e1	-0.08107162
255	0xbd58333b	-0.052783232
